tracegnn/models/gtrace/model.pth (torch, 50633 bytes, 50 tensors)

embedding.operation_embed.weight f4 [100, 4]
0	0xbdaf51ab	-0.08560499
1	0xbec2d2cd	-0.38051453
2	0x3dffe99c	0.12495729
3	0xbf2cf394	-0.6755917
4	0x3d292b96	0.041301332
5	0x3f031c19	0.5121475
6	0xbd3b3d99	-0.04571304
7	0xbeb768c1	-0.35822108
8	0xbf735867	-0.95056766
9	0x3e802452	0.2502771
10	0xbe5de8e5	-0.21670873
11	0xbf0c33c2	-0.54766476
12	0xbe9a915b	-0.30189022
13	0xbeea2467	-0.45730898
14	0xbedf508c	-0.4361614
15	0xbf769f75	-0.9633706
16	0x3e66bcfa	0.22533026
17	0x3e2ba3a0	0.16761637
18	0xbf8599b6	-1.0437534
19	0xbfa4decb	-1.2880491
20	0x3e62d6d5	0.22152264
21	0x3ec03019	0.37536696
22	0xbe97271d	-0.2952203
23	0xbf0bac75	-0.54560024
24	0xbe05df2c	-0.13073415
25	0xbf8f24ca	-1.1183102
26	0x3e2d2374	0.16908056
27	0x3e413896	0.18869242
28	0xbfab313e	-1.3374403
29	0x3f2cff93	0.67577475
30	0xbfa1645f	-1.2608756
31	0x3f1c2b60	0.61003685
32	0xbf0d3edb	-0.55174035
33	0x3d855157	0.06509655
34	0xbe803fee	-0.25048774
35	0xbeb4617d	-0.35230628
36	0xbe3c3a4d	-0.18381615
37	0xbda05b4e	-0.07829915
38	0xbfd9863a	-1.6994088
39	0x3eb3b416	0.35098332
40	0x3f380144	0.7187693
41	0x3bc442d5	0.0059894123
42	0xbe764576	-0.24049935
43	0xbf62e6bc	-0.8863332
44	0x3fdaaa7e	1.708328
45	0xbfac20bc	-1.344749
46	0x3fab001e	1.3359411
47	0x3eaa695e	0.33283514
48	0x3fce4f8c	1.6118026
49	0xbf87e4ce	-1.0616701
50	0xbf2c2cde	-0.6725596
51	0xbfa847c0	-1.3146896
52	0xbf706b45	-0.9391368
53	0xbd380213	-0.044923853
54	0xbf298cac	-0.66230273
55	0x3f1413a6	0.5784248
56	0x3ecc170a	0.39861327
57	0x3f858664	1.0431638
58	0x3edc614b	0.4304298
59	0x3fafdce9	1.3739291
60	0x3e789d6a	0.24278799
61	0xbfd9c91a	-1.7014496
62	0xbf9184a4	-1.1368604
63	0x3f2b7902	0.6698152
64	0x3f5dcc6a	0.86640036
65	0x3edbd308	0.42934442
66	0x3ed2acac	0.41147363
67	0x3b39a92e	0.0028329599
68	0x3dfcff50	0.123533845
69	0xbf62ee3c	-0.88644767
70	0x3ea21795	0.31658617
71	0x3f0ad142	0.5422555
72	0x3e5e5414	0.21711761
73	0xbf1c8a6a	-0.61148703
74	0xbf8e8f67	-1.1137513
75	0x3f3a6a94	0.72818875
76	0x3f4ce3b5	0.80034953
77	0xbf119ce5	-0.5688003
78	0xbec68077	-0.38769886
79	0x3f34dd32	0.7065002
80	0x3e19bb7b	0.15012924
81	0xbf5715db	-0.84017724
82	0xbebce852	-0.36895996
83	0xbefd25db	-0.49442944
84	0x3ea90653	0.33012637
85	0x3e609171	0.21930481
86	0xbe42b039	-0.19012536
87	0x3e2008dc	0.1562838
88	0x3f7765c0	0.96639633
89	0xbf61becf	-0.88181776
90	0xbdde4874	-0.10853663
91	0xbf1a1d9a	-0.6020142
92	0x3d3b6518	0.045750707
93	0x3fd080c2	1.6289294
94	0xbfa64c9f	-1.2992133
95	0x3ead8fe2	0.33898836
96	0x3f10ec35	0.56610423
97	0x3f9bfb20	1.2186012
98	0xbe18cc6e	-0.14921734
99	0xbe3d7b1b	-0.18503992
100	0x3faa6e08	1.3314829
101	0x3f5114ed	0.81672555
102	0xbee81067	-0.45325014
103	0xbe06516a	-0.13116995
104	0x3eb8b729	0.3607724
105	0xbf76b27e	-0.9636611
106	0xbf49cc6b	-0.7882754
107	0x3f2a881b	0.6661393
108	0x3ee07a67	0.43843386
109	0x3d4ce9e4	0.050027743
110	0xbc93415b	-0.0179755
111	0x3f2e1d12	0.6801311
112	0x3ebc5b3a	0.3678835
113	0xbf42972e	-0.7601193
114	0x401e446e	2.4729266
115	0x401c630f	2.443546
116	0xbe5a0d64	-0.2129417
117	0xbe90fab4	-0.2831627
118	0x3f5d7fc7	0.865231
119	0x3f706ed0	0.93919086
120	0x3e1305a6	0.14357623
121	0xbf7ad002	-0.97973645
122	0xbe1e8d65	-0.15483625
123	0x3c5e0e16	0.013553163
124	0x3f074a2b	0.52847546
125	0xbee54a27	-0.44783136
126	0x3f3212a6	0.69559705
127	0x3ebe34de	0.3714971
128	0xbf35df86	-0.71044195
129	0xbf52a6aa	-0.8228556
130	0xbf85a31f	-1.0440406
131	0x3dd7f6c5	0.105451144
132	0x3cb7f5a9	0.022456007
133	0x3ebad3c4	0.3648969
134	0xbf531c99	-0.8246551
135	0xbfc6408d	-1.5488449
136	0xbfb43867	-1.4079713
137	0x3f15ace1	0.5846692
138	0xbed83cd7	-0.42233917
139	0xbf04e0cc	-0.5190551
140	0x3ef54b62	0.47909075
141	0xbeebdaa4	-0.46065247
142	0x3f133e6b	0.5751712
143	0x3f787291	0.97049814
144	0xbe93294f	-0.28742453
145	0x3e259e69	0.1617371
146	0x3eec62d0	0.46169138
147	0xbfb49561	-1.4108087
148	0xbf6e596a	-0.93105185
149	0xbf4511ec	-0.7698047
150	0x3f383c2a	0.71966803
151	0x3e33aa8e	0.1754553
152	0xbf925175	-1.1431109
153	0xbf5645eb	-0.83700436
154	0x3f981fad	1.1884667
155	0xc0030455	-2.0471394
156	0x3eb6f723	0.35735425
157	0xbfb0e88b	-1.3820966
158	0x3ebfd950	0.37470484
159	0xbfecd60c	-1.8502822
160	0xbeda632c	-0.42653787
161	0xbf792b0a	-0.973313
162	0xbf26318f	-0.6491937
163	0x3f255e2e	0.6459683
164	0xbf688d40	-0.9084053
165	0x3f597f29	0.84959656
166	0xbe86ff34	-0.2636658
167	0x3fc776af	1.5583094
168	0xbfbc7a93	-1.4724907
169	0xbf813bca	-1.0096371
170	0x3f710375	0.941459
171	0x3f09cb55	0.53825885
172	0xbc550d63	-0.01300368
173	0xbe5e099e	-0.21683356
174	0xbefce3f8	-0.49392676
175	0xbc79a359	-0.015236699
176	0x3db0369b	0.08604165
177	0xbf017dfd	-0.5058287
178	0xbef4eeb7	-0.47838375
179	0xbf117ac8	-0.56827974
180	0x3e86443e	0.2622394
181	0xbe616781	-0.2201214
182	0xbf03eee8	-0.51536417
183	0x3f2d7908	0.67762804
184	0x3f0d7469	0.5525575
185	0x3e2dc058	0.16967905
186	0xbe56c79b	-0.20974581
187	0x3f28f094	0.65992093
188	0xbd3f4ab6	-0.04670211
189	0x3fceb06d	1.6147591
190	0xbf42c9ce	-0.7608918
191	0x3f8a1980	1.0789032
192	0xbf1bdbe9	-0.6088243
193	0x3ef109da	0.4707783
194	0xbe563a7d	-0.20920749
195	0x3fa26d08	1.2689524
196	0x3f88ba1f	1.06818
197	0x3eedbaa3	0.46431455
198	0x3e2d4f61	0.16924812
199	0xbf21bd34	-0.63179326
200	0x3f0efa95	0.5585111
201	0xbf0fe86a	-0.5621401
202	0x3f993da1	1.1971933
203	0xbf483dc2	-0.78219235
204	0xbc5c2117	-0.013435624
205	0xbf3459fe	-0.7044982
206	0xbf382d18	-0.7194381
207	0xbfbe7b21	-1.4881326
208	0x3e36bed1	0.17846228
209	0xbf580f11	-0.8439799
210	0xbf74ae39	-0.9557834
211	0xbf12d111	-0.5735026
212	0xbf232806	-0.63732946
213	0x3ef3974a	0.47576362
214	0xbe01094e	-0.12601206
215	0x3d90ab41	0.07063914
216	0x3f211a42	0.6293069
217	0xbf07e4eb	-0.53083676
218	0x3f24c666	0.6436523
219	0xbf0ad57c	-0.54232
220	0x3f31e717	0.6949324
221	0x3f99e617	1.2023343
222	0xbdadef01	-0.08492852
223	0xbe49e3f6	-0.19715866
224	0x3e8bb751	0.27288297
225	0x3d39e037	0.045379844
226	0x3e294891	0.16531588
227	0x401b3557	2.4251306
228	0x3e11c18c	0.14233989
229	0xbe05acab	-0.13054149
230	0x3f497777	0.78697914
231	0x3d5cf723	0.053946625
232	0x3e8d557c	0.27604282
233	0xc018a765	-2.385217
234	0xbf31f97b	-0.695213
235	0x3f1b9b5e	0.60783947
236	0xbf05a2fb	-0.52201813
237	0x3e335d46	0.1751605
238	0xbf823c2a	-1.0174611
239	0x3ed8001f	0.42187592
240	0xbe2c4a1d	-0.16825147
241	0x3eedceab	0.46446738
242	0x3d147cd7	0.03625187
243	0x3c1bbd66	0.009505605
244	0xbd9e6dad	-0.07735763
245	0x3f21f25b	0.6326043
246	0xbf0624b9	-0.52399784
247	0xbef41380	-0.47671127
248	0xbeacb0a9	-0.3372853
249	0x3e051bf8	0.1299895
250	0xbf81685f	-1.0109977
251	0x3ea8113f	0.32825658
252	0xbf4eda86	-0.8080219
253	0xbe1ad3b3	-0.1511982
254	0x3f272b9a	0.65300906
255	0xbe9f805c	-0.31152618

embedding.service_embed.weight f4 [100, 4]
0	0xbf85397b	-1.0408167
1	0xbe129e4e	-0.14318201
2	0xbf818b51	-1.0120641
3	0x3f8e15e5	1.1100432
4	0xbfc169bd	-1.5110394
5	0xbfd828f2	-1.6887496
6	0x3ccea830	0.025226682
7	0xbf2cab90	-0.67449284
8	0xbec292c8	-0.3800261
9	0x3e980209	0.29689053
10	0xbe9637d8	-0.2933948
11	0x3ef5e44e	0.48025745
12	0xbd71dc7e	-0.05904817
13	0x3f657e8d	0.89646226
14	0xbddc46b3	-0.10755672
15	0x3f3e51e6	0.7434372
16	0xbd84ffdc	-0.06494114
17	0xbe18c583	-0.14919095
18	0x3ce5b3d8	0.028039858
19	0x3f3586ba	0.709087
20	0xbe85d2d8	-0.26137424
21	0xbee7ffec	-0.4531244
22	0x3fb729f3	1.4309677
23	0x3e835ae4	0.25655282
24	0x3f28a394	0.658746
25	0xbf166026	-0.5874046
26	0x3fc38780	1.5275726
27	0xbf7eadfa	-0.9948422
28	0x3f142168	0.57863474
29	0x3f860108	1.0469065
30	0xbeb465bf	-0.35233876
31	0x3f02cd94	0.5109494
32	0xbf1e6667	-0.61875004
33	0x3fb9e12a	1.452184
34	0x3e93f1b8	0.28895354
35	0x3ebcf47f	0.36905286
36	0x3fdf7e96	1.7460506
37	0xbf6e0415	-0.9297498
38	0xbf9515b8	-1.1647253
39	0x3f8a39bc	1.0798869
40	0xbedc6fa0	-0.43053913
41	0x3efc77ba	0.49310094
42	0x3f6a3878	0.91492414
43	0x3d266d43	0.040631544
44	0x3e582785	0.21108826
45	0x3ed60a35	0.41804662
46	0xbdfe9637	-0.12430995
47	0x3efb84bc	0.49124706
48	0x3f98d412	1.1939719
49	0x3fad843f	1.3555983
50	0x3eed29f4	0.4632107
51	0xbf584f10	-0.8449564
52	0xbf07d5ac	-0.5306041
53	0xc00c122c	-2.1886091
54	0xbf28ee4e	-0.65988624
55	0xbe9f4bf3	-0.31112632
56	0x3e559525	0.20857675
57	0x3e6a564a	0.22884479
58	0x3eb98aff	0.36238858
59	0xbeb91686	-0.36149997
60	0xbf65be31	-0.89743334
61	0xbfbf7522	-1.4957621
62	0xbf148eef	-0.580306
63	0xbe13d85c	-0.14438003
64	0x3e2e3099	0.17010726
65	0x3d677e9c	0.05651723
66	0x3f52c9a3	0.82338923
67	0x3f1a55fa	0.6028744
68	0xbe8495ac	-0.2589544
69	0xbddd6971	-0.10811127
70	0xbdc6425e	-0.09680627
71	0xbf340fae	-0.70336425
72	0x3f53ea29	0.82779175
73	0xbf1ce27a	-0.61283076
74	0xbf2c143c	-0.67218375
75	0xbf48f7c2	-0.7850305
76	0xbf2ce079	-0.6753002
77	0x3fc390e9	1.5278598
78	0x3da47fa6	0.080321595
79	0x3f5a6935	0.85316783
80	0xbcc4e6b5	-0.024035791
81	0x3eaf2850	0.34210443
82	0x3f912031	1.1337949
83	0xbf4c9e6e	-0.79929245
84	0x3f1c4389	0.6104055
85	0x3eb5c795	0.35503832
86	0x3ecf6d08	0.40512872
87	0x3d92104a	0.07132013
88	0x3f7b7527	0.98225635
89	0xbef6c165	-0.48194423
90	0x3f0ea453	0.5571949
91	0xbf8c3fdd	-1.095699
92	0xbe524861	-0.20535423
93	0x3f20009e	0.6250094
94	0x3e21bd25	0.15794809
95	0xbf09e639	-0.53866917
96	0x3ee24b67	0.44198152
97	0xbf6ad856	-0.9173635
98	0x3e50a7c3	0.20376496
99	0xbf0b1a62	-0.5433713
100	0x3de564b5	0.11200849
101	0xbfb0418a	-1.3770001
102	0xbe8c3efb	-0.273918
103	0xbf8ed873	-1.1159805
104	0x3fa86f0d	1.315889
105	0xbf47c694	-0.7803738
106	0xbfce27a3	-1.6105846
107	0xbfa68e32	-1.3012145
108	0xbf4b7d36	-0.7948793
109	0x3f350f93	0.7072689
110	0xbf02aba9	-0.5104318
111	0xbef27377	-0.47353718
112	0x3f808dcc	1.0043273
113	0x3f90880f	1.1291522
114	0xbe5fba20	-0.21848345
115	0xbe922dc7	-0.2855055
116	0xbfa2745a	-1.2691758
117	0xbf8acb6d	-1.0843331
118	0xbe14d268	-0.14533389
119	0x3faf2d14	1.3685632
120	0x3fb08e4b	1.3793424
121	0x3f4006f5	0.75010616
122	0xbeb58480	-0.35452652
123	0xbf92ea23	-1.1477703
124	0xbe9dddb4	-0.3083321
125	0xbe046b23	-0.12931494
126	0xbf0f17c1	-0.5589562
127	0xbfe4ea0d	-1.7883927
128	0xbec084d0	-0.37601328
129	0xbf8f080b	-1.117433
130	0x3e9c847a	0.30569822
131	0x3e82cd13	0.25547084
132	0xbea25cba	-0.3171137
133	0x3d20e35a	0.03927932
134	0xbf877577	-1.0582722
135	0x3f2fb9f3	0.6864311
136	0x3eea4a46	0.4575979
137	0x3dae3f33	0.08508148
138	0x3f17eb30	0.5934324
139	0xbf02537b	-0.5090863
140	0x3ef16167	0.47144625
141	0xbecc3bde	-0.39889425
142	0xbfaf316d	-1.3686959
143	0x3c81872d	0.015811527
144	0xbe445f6f	-0.1917703
145	0xbde3d597	-0.111247234
146	0x3f83554e	1.0260408
147	0xbff0715e	-1.8784597
148	0xbf923b98	-1.1424437
149	0xbf1ccf97	-0.61254257
150	0x3f8fcbdf	1.1234092
151	0x3e6ad2f2	0.22932032
152	0xbddb9f3b	-0.1072373
153	0x3d509898	0.050926775
154	0xbfc7bcb1	-1.5604459
155	0xbec04121	-0.3754969
156	0x3c8c6ce5	0.017141769
157	0x3e332ebe	0.174983
158	0xbe11aa57	-0.14225136
159	0x3ea24e60	0.3170042
160	0x3f958b20	1.1683083
161	0xbc8ff39d	-0.017572219
162	0xbf61f55a	-0.88265
163	0xbe727b3f	-0.23679827
164	0xbf92ae9a	-1.1459534
165	0xbf13a31e	-0.5767077
166	0xbf000003	-0.5000002
167	0x3fed98b3	1.8562225
168	0x3ecbe516	0.39823216
169	0xbe7af59e	-0.24507758
170	0xbf05cd7f	-0.5226669
171	0x3e545adc	0.20737785
172	0x3f07eb8d	0.53093797
173	0xbfe24f5b	-1.7680467
174	0x3ea4f72f	0.32219836
175	0x3e443270	0.19159865
176	0x3e5b6bd8	0.21427858
177	0x3f6ef038	0.93335295
178	0x3e0789cb	0.13236158
179	0x3e224f35	0.15850528
180	0x3f8961ed	1.073301
181	0xbf4863bb	-0.78277177
182	0xbec899ea	-0.39179927
183	0xbec9022e	-0.39259475
184	0xbf231973	-0.6371071
185	0xbfbbfeaf	-1.4687098
186	0xbe8485ed	-0.25883427
187	0xbf2b4a16	-0.6690992
188	0x3f092483	0.5357134
189	0xbfa906fa	-1.3205254
190	0x3d376474	0.044773534
191	0xbe5282b3	-0.2055767
192	0x3e8689d1	0.2627702
193	0xbfe58dd3	-1.7933906
194	0xbf2d700f	-0.6774911
195	0xbe9450c1	-0.2896786
196	0xbfa0027e	-1.250076
197	0x3df449a2	0.11928107
198	0x3efd57fe	0.49481195
199	0xbf1e3845	-0.6180461
200	0x3f1a9ba6	0.6039375
201	0xbfa31067	-1.2739381
202	0xbf0a9246	-0.54129446
203	0x3eafb118	0.343148
204	0xbea8b2fc	-0.32949054
205	0x3f616ba1	0.88054854
206	0x3c4c48cc	0.012468528
207	0x3d4011d2	0.046891995
208	0xc004511e	-2.067451
209	0xbec75be0	-0.38937283
210	0x3f2b825a	0.66995776
211	0xbe390bcb	-0.18070905
212	0x3e3f138e	0.18659803
213	0x3ed51105	0.41614547
214	0x3f1316ec	0.5745685
215	0x3dc24050	0.09484923
216	0x3dcea2e6	0.10089664
217	0x3dbe1c60	0.09282756
218	0xbf4a5878	-0.7904124
219	0xbf0cf44f	-0.55060285
220	0xbf478d70	-0.7795019
221	0x3f79ec59	0.9762626
222	0x3debf0ad	0.11520515
223	0x3e8ed191	0.2789426
224	0xbe8e26a9	-0.2776387
225	0x3f3e734d	0.74394685
226	0x3f2d50bf	0.67701334
227	0xbd68e69e	-0.05686056
228	0xbef9bc9b	-0.48776707
229	0xbf08ddd6	-0.53463495
230	0x3efd2b9e	0.4944734
231	0xc00f8699	-2.2425902
232	0x3e5794b5	0.21052821
233	0xbef04b83	-0.4693261
234	0xbe658bd2	-0.22416618
235	0xbf57570b	-0.8411719
236	0x3f087015	0.53296024
237	0xbf1726e7	-0.59043735
238	0x3f6e073a	0.92979777
239	0x3f1d77eb	0.61511105
240	0xbec06088	-0.37573647
241	0x3e49b9e9	0.19699825
242	0xbe6496df	-0.22323178
243	0xbf0156f5	-0.5052331
244	0xbf8941fd	-1.0723263
245	0xbed711f4	-0.42005885
246	0x3ef2a7b4	0.47393572
247	0xbf46ce09	-0.77658135
248	0xbef15f42	-0.47142988
249	0xbea7d995	-0.3278319
250	0x3e561bd1	0.20909049
251	0xbee329a5	-0.4436771
252	0x3d094ade	0.033518665
253	0x3f486edf	0.78294176
254	0x3f4b46c9	0.79404885
255	0x3f6c064d	0.92197114

embedding.status_embed.weight f4 [100, 4]
0	0xbe2e004b	-0.169923
1	0x3de7cbf6	0.11318199
2	0xbe13169e	-0.14364097
3	0x3f437114	0.7634442
4	0x3ec21683	0.379078
5	0x3e7e3066	0.2482315
6	0xbe867c9b	-0.2626694
7	0x3f4e6cf3	0.80634993
8	0xbe0619fd	-0.13095851
9	0x3f6dbfe4	0.92870927
10	0x3f38182e	0.71911895
11	0x3e7e9982	0.24863246
12	0xbf210570	-0.6289892
13	0x3e5bfbe4	0.21482807
14	0xbeabdd41	-0.3356724
15	0x3f9bdf33	1.217749
16	0x3eb2cefb	0.3492354
17	0xbf56075f	-0.83605
18	0x3df5b0e8	0.11996633
19	0xbf508027	-0.81445545
20	0x3f186ce7	0.5954117
21	0x3e9d0845	0.30670372
22	0x3d09e5db	0.033666473
23	0xbe694971	-0.22781922
24	0xbe9a642d	-0.30154553
25	0xbe8e1512	-0.2775045
26	0xc027055f	-2.6097028
27	0xbdaddc9a	-0.08489342
28	0xbf17d8fc	-0.59315467
29	0x3f328e9c	0.69748855
30	0x3f7f6f50	0.99779224
31	0x3f2b00c5	0.6679805
32	0xbe1bca5e	-0.15213916
33	0xbf62c596	-0.8858274
34	0xbf1738ba	-0.5907093
35	0xbeb69dcc	-0.35667264
36	0xbe96e9ef	-0.29475352
37	0xbeab30fc	-0.3343581
38	0x3ed43a28	0.4145062
39	0xbf6e1b1b	-0.9301011
40	0xbf1e7520	-0.6189747
41	0xbeae85f5	-0.34086576
42	0x3f8be8b7	1.0930394
43	0x3e49532c	0.19660634
44	0x3ea31284	0.31850064
45	0x3fab7dd6	1.3397777
46	0x3f95793e	1.1677625
47	0x3ef39593	0.47575054
48	0xbe037836	-0.12838826
49	0xbeee31e6	-0.46522444
50	0x3cd9ef8f	0.026603488
51	0xbf3eb18a	-0.74489653
52	0xbfa4029c	-1.2813296
53	0x3fa73f7f	1.3066252
54	0x3f2a3deb	0.6650073
55	0xbf8455ec	-1.0338721
56	0xbeec513d	-0.4615573
57	0xbe7e6b51	-0.24845625
58	0xbefc15c7	-0.49235365
59	0xbfea57b7	-1.8308018
60	0xc0040464	-2.062768
61	0xbe4fa07c	-0.20276064
62	0x3ec90cd1	0.3926759
63	0xbea4584d	-0.32098618
64	0x3dd57f1e	0.10424636
65	0x3fd6c134	1.6777711
66	0xbe296519	-0.16542472
67	0xbeaa5919	-0.332711
68	0xbe2ddc81	-0.16978647
69	0xbf0f15ff	-0.5589294
70	0x3fa697cc	1.3015075
71	0xbedd2b09	-0.43196896
72	0xbfd22dd4	-1.6420236
73	0xbc29f9d1	-0.010374502
74	0x3f33f5b2	0.70296776
75	0xbfb4c574	-1.4122758
76	0x3ef8e5d1	0.48612836
77	0x3f27daba	0.65568125
78	0xbfafda04	-1.3738408
79	0xbf2a5e75	-0.6655038
80	0x3cc02452	0.023454819
81	0xbfe3a407	-1.7784432
82	0x3fbe98f1	1.4890424
83	0xbfa9c932	-1.3264525
84	0xbf76377c	-0.9617841
85	0x3e9f7074	0.31140482
86	0xbcf1fabf	-0.02953851
87	0x3f237c62	0.6386167
88	0xbe8fb2a9	-0.28065994
89	0xbf734313	-0.9502422
90	0xbe495f8b	-0.19665353
91	0xbd9955c2	-0.0748706
92	0x3e325c34	0.17417985
93	0xbf99a722	-1.200413
94	0x3f33ddf3	0.7026054
95	0x3e6f3b77	0.23362528
96	0xbf2d3739	-0.6766239
97	0xbf9b5d9b	-1.2137941
98	0xbe919ae9	-0.284385
99	0xbf7208fb	-0.94544953
100	0xbef0f974	-0.47065318
101	0x3e5bcb99	0.21464385
102	0xbed6c5fb	-0.41947922
103	0xbe910d72	-0.2833057
104	0x3f212210	0.629426
105	0xc002f68a	-2.0462976
106	0x3e840d5f	0.2579145
107	0xbeb1d5b4	-0.34733355
108	0x3d10c37a	0.03534267
109	0xbe4bd3dd	-0.19905038
110	0xbf4b1773	-0.79332656
111	0x3f1d0705	0.61338836
112	0xbe8a69e7	-0.27033922
113	0xbf958282	-1.1680453
114	0xbe9e7298	-0.30946803
115	0xbf8cd4d3	-1.1002449
116	0x3f11551a	0.5677048
117	0x3f629737	0.88511986
118	0xbfa5a774	-1.2941728
119	0x3f6eef1e	0.93333614
120	0xbe92d6dd	-0.28679553
121	0xbf5a958f	-0.8538446
122	0xbf4634fa	-0.77424586
123	0x3ee9420b	0.455582
124	0x3e86fdc9	0.26365498
125	0x3f9ba646	1.2160118
126	0xbf2f509c	-0.68482375
127	0x3c3fcd5e	0.011706678
128	0x3e25df3d	0.1619844
129	0x3e6f958c	0.23396891
130	0x3df977d2	0.12181057
131	0x3f0222a6	0.5083412
132	0xbe388de7	-0.18022881
133	0x3ebd344d	0.36953965
134	0xbe88d312	-0.26723534
135	0xbecab18c	-0.39588583
136	0xbd0d84c1	-0.034550432
137	0x3efcd0a7	0.4937794
138	0x3fa4a50b	1.2862867
139	0x3f2fa9ec	0.68618655
140	0x3ec7101f	0.38879487
141	0xbe8dfdae	-0.27732605
142	0xbf18f42c	-0.59747577
143	0xbdc144bd	-0.09436939
144	0xbce33f08	-0.027740017
145	0xbe676f08	-0.22600949
146	0xbffcf294	-1.9761529
147	0xbf45856e	-0.7715672
148	0x3fba4480	1.4552155
149	0x3d423271	0.047411386
150	0x3e34e39e	0.17664954
151	0xbdc31ab5	-0.09526578
152	0xbdac5630	-0.084148765
153	0x3f95dfba	1.1708901
154	0xbeba4335	-0.363794
155	0xbee4fcb7	-0.44724056
156	0xbe3d32d2	-0.18476418
157	0x3f31fab4	0.6952317
158	0x3d9e2b4d	0.07723103
159	0x3f61807f	0.88086694
160	0xbfb1d439	-1.389289
161	0xbf16eb6c	-0.58952975
162	0xbf187f80	-0.5956955
163	0xbec12fbb	-0.37731728
164	0xbf0d2a3d	-0.55142576
165	0xbda67015	-0.08126847
166	0x3f54e1bf	0.8315696
167	0x3d44d2c5	0.048052568
168	0x3f1e1ad4	0.61759686
169	0x3e0be5f0	0.13661933
170	0xbf1ebca9	-0.6200662
171	0x3e40a014	0.18811065
172	0xbe18924f	-0.14899562
173	0xbe90982a	-0.28241092
174	0xbf3c18fa	-0.7347561
175	0xbfbadc00	-1.4598389
176	0xbf8016e3	-1.0006984
177	0xbf8fdf97	-1.1240109
178	0xbe821fa0	-0.25414753
179	0xbea4619f	-0.3210573
180	0xbf8a7a74	-1.081862
181	0xbff6a256	-1.9268291
182	0xbf1a9045	-0.6037639
183	0xbeccfc80	-0.40036392
184	0x3ec11822	0.37713724
185	0x3fad44b1	1.3536588
186	0x3cfdc2fb	0.030976763
187	0x3eaf039a	0.34182435
188	0xbfa28402	-1.2696536
189	0xbeefbf01	-0.46825412
190	0x3c1b5f99	0.0094832415
191	0x3fc8bddc	1.568294
192	0xbeb682f5	-0.35646787
193	0x3eeab47c	0.45840824
194	0x3e59fc19	0.21287574
195	0x3fb02832	1.3762267
196	0x3f0dae51	0.5534411
197	0x3ee864f9	0.45389536
198	0xbf450715	-0.7696393
199	0xbe138e0f	-0.1440966
200	0x3fab01b5	1.3359896
201	0xbe466b73	-0.19376926
202	0xbf5e1745	-0.86754256
203	0xbeda645d	-0.42654696
204	0x3d9d6cf9	0.076868005
205	0x3dafee08	0.08590323
206	0xbf43b8e5	-0.76454
207	0xbe95b74e	-0.29241413
208	0xbf06be04	-0.5263369
209	0xbdb122d5	-0.08649222
210	0x3f5b60dd	0.85694677
211	0x3f1ad743	0.60484713
212	0xbcd216ad	-0.025645578
213	0xbf78ea7e	-0.97232807
214	0x3fc1810c	1.5117507
215	0xbf23cfd4	-0.63988996
216	0xbc20d76d	-0.0098169865
217	0x3f93a607	1.1535043
218	0xbf0cc397	-0.54985946
219	0xbe37469b	-0.17898028
220	0x3ffff50a	1.9996655
221	0xbfa11c70	-1.2586803
222	0xbf460376	-0.7734903
223	0xbe8a6135	-0.27027288
224	0x3ed446a2	0.4146014
225	0x3f2e9408	0.6819463
226	0xbe543e96	-0.20727
227	0xc013f5fc	-2.3118887
228	0x3d9a0309	0.0752011
229	0xbdc80b5d	-0.097677924
230	0x3dab647a	0.08368774
231	0xbe2346b9	-0.15944947
232	0xbf0c8a4a	-0.5489851
233	0x3eda50d0	0.4263978
234	0xbed86dea	-0.42271358
235	0xbe19a960	-0.15006018
236	0xbf1352aa	-0.5754801
237	0x3f85e4e1	1.0460473
238	0x3e8608f5	0.2617871
239	0x3f73e016	0.95263803
240	0xbe7994cf	-0.24373172
241	0xbe008984	-0.12552458
242	0xbf0d2789	-0.5513845
243	0xbe774f02	-0.24151233
244	0xbe08326f	-0.13300489
245	0xbe905400	-0.28189087
246	0xbe6b5591	-0.2298186
247	0xbf564e53	-0.83713263
248	0x3f457eac	0.7714641
249	0x3fdc8253	1.7227272
250	0xbf29cbbc	-0.663265
251	0xbea9563f	-0.33073613
252	0x3f047ba8	0.51751184
253	0xbf32592f	-0.69667333
254	0x3f2d8030	0.67773724
255	0xbdfda01c	-0.12384054

encoder.embedding.operation_embed.weight f4 [100, 4]
0	0x3f6d1028	0.9260278
1	0xbebfb092	-0.374394
2	0xbe7dbe01	-0.24779512
3	0x3fd667a3	1.6750377
4	0xbfb52392	-1.415148
5	0x3fc047df	1.5021933
6	0x3ffb4850	1.9631443
7	0xc051ce2c	-3.2782087
8	0x3f08cb39	0.53435093
9	0xbf9e29a5	-1.2356459
10	0x3fee9571	1.8639356
11	0x40004853	2.0044143
12	0xbf092275	-0.535682
13	0xbfd70f72	-1.6801589
14	0xbf614d87	-0.8800892
15	0x3e21c38a	0.15797248
16	0x3fc521e9	1.5400974
17	0xbeef5586	-0.46744937
18	0xbfa4c193	-1.2871574
19	0x3f5c77b9	0.8612018
20	0xbf3d6da5	-0.7399543
21	0x3f2080be	0.62696445
22	0xbe858292	-0.2607618
23	0xbee382b5	-0.4443566
24	0xbe9544d2	-0.29154068
25	0xbf81cb74	-1.0140214
26	0xbe587f21	-0.21142246
27	0x3ee23cdc	0.44187057
28	0x3e903876	0.28168076
29	0x3e049658	0.12947977
30	0xbe12ab99	-0.14323272
31	0x3f7bc794	0.9835141
32	0x3eaa12b6	0.332174
33	0xbfe7f4a9	-1.8121539
34	0x3e90c84c	0.28277814
35	0x3fd3453b	1.6505502
36	0xbe474a00	-0.19461823
37	0x3e18879b	0.1489548
38	0xbf5617e8	-0.8363023
39	0x3f4d7d42	0.80269253
40	0xc007219e	-2.1114268
41	0xbea9118b	-0.33021197
42	0xbe890686	-0.2676279
43	0x3f1163e1	0.5679303
44	0x3f7198ac	0.94373584
45	0x3b5f06de	0.0034031193
46	0x3e9da4e4	0.30789864
47	0x3f80339b	1.0015749
48	0x3fd66cd7	1.6751965
49	0x3f76edb9	0.96456486
50	0x3f250d37	0.6447329
51	0xbf4772c5	-0.779095
52	0xbcaa2102	-0.020767692
53	0x3e73956b	0.23787467
54	0xbf02192c	-0.5081966
55	0xbfaa2282	-1.3291781
56	0xbf0d523a	-0.5520359
57	0x3fc2a23d	1.5205761
58	0xbf060199	-0.5234619
59	0xc01d2128	-2.4551487
60	0x3f13a48d	0.5767296
61	0x3ee678d0	0.45014048
62	0xbf60c94e	-0.87807167
63	0x3ead9ecb	0.33910212
64	0x3f4faa2d	0.8111904
65	0xbf88e342	-1.0694354
66	0xbd6fc43d	-0.058536757
67	0x3eb5945e	0.35464758
68	0x3f24a20c	0.64309764
69	0x3f16e723	0.58946437
70	0x3f8823c9	1.0635921
71	0xbdeecfc5	-0.11660723
72	0x3ffe80e4	1.9883084
73	0x3f34ab52	0.70573914
74	0x3e8cdea6	0.27513617
75	0xbf586925	-0.8453544
76	0xbf105d46	-0.56392324
77	0xbeb9d2d1	-0.36293653
78	0xbd8d21c5	-0.06891207
79	0x3fc96a62	1.573559
80	0x3c09f57c	0.008420344
81	0x3f53cb5e	0.8273219
82	0xbf22b4d5	-0.6355718
83	0x3f9699a7	1.1765641
84	0xbf300724	-0.68760896
85	0xbe9f5e1a	-0.3112648
86	0x3ecf563e	0.40495485
87	0xbfab64d4	-1.3390145
88	0x3f1202db	0.5703561
89	0x3fe604fb	1.797027
90	0xbfba4131	-1.4551145
91	0xbf19de37	-0.601047
92	0xbe1f8a6e	-0.1558015
93	0xbeae9abc	-0.34102428
94	0xbf4e3a21	-0.8055745
95	0x3fe0ecba	1.7572243
96	0x3e48d70a	0.19613281
97	0x3f8faebd	1.1225201
98	0xbd5ea6ad	-0.054358173
99	0xbf8d4579	-1.1036826
100	0x3f09737a	0.5369183
101	0x40004e89	2.0047934
102	0xbec45290	-0.3834424
103	0xbfa192a5	-1.2622877
104	0x3e81cf52	0.25353485
105	0x3f0c946d	0.5491398
106	0x3f336ead	0.7009075
107	0x3f8b2022	1.0869181
108	0xbf00baf3	-0.5028526
109	0x3fd8487d	1.6897122
110	0x3f8361d9	1.0264236
111	0xbfdbe01e	-1.717777
112	0xbf3185d2	-0.6934482
113	0xbf45caf7	-0.77262825
114	0xbf880406	-1.0626228
115	0xbd00e72c	-0.031470463
116	0xbeb751c2	-0.35804564
117	0xbf874106	-1.0566719
118	0xbf23731c	-0.6384752
119	0xbfa2d372	-1.2720778
120	0xbf845371	-1.0337964
121	0x3e80350b	0.2504047
122	0x3fc7076b	1.5549139
123	0xbf32cc86	-0.6984333
124	0x3fcc423c	1.5957713
125	0x3f678ae2	0.90446293
126	0x3e9662d8	0.29372287
127	0xbe95fcb1	-0.2929435
128	0x3f0bf3d0	0.54668903
129	0x3f8599e0	1.0437584
130	0x3ebde824	0.37091172
131	0xbec46c50	-0.38363886
132	0xbfaf7a67	-1.3709229
133	0x3dcb1ea6	0.09917955
134	0x3f1d915d	0.6154993
135	0xbf6017c4	-0.87536263
136	0x3f9845e6	1.1896331
137	0x3f5de95e	0.86684215
138	0x3e0fef82	0.14056209
139	0xbf032ae8	-0.51237345
140	0x3ea610eb	0.32434782
141	0x400d7ee2	2.2108693
142	0xbd3b2ba0	-0.0456959
143	0x3eb0e278	0.34547782
144	0xbfa5ffc5	-1.296868
145	0xc0823377	-4.0687823
146	0x3f097cec	0.5370624
147	0xbf38aba1	-0.72136885
148	0x3e9d576a	0.30730754
149	0x3eab9dc3	0.335188
150	0x3e65e65a	0.22451153
151	0xbd1fcd95	-0.039014418
152	0xbda0b9a6	-0.0784791
153	0xbe1c3338	-0.15253913
154	0xbe176bfb	-0.14787285
155	0xbf09e956	-0.5387167
156	0x3eb0c8e2	0.3452826
157	0xbfb736e3	-1.4313625
158	0xbf75b7da	-0.9598366
159	0xbe00d631	-0.12581708
160	0xbf509364	-0.814749
161	0xbfcab97d	-1.5837857
162	0x3db2a90e	0.08723651
163	0x3f293c0c	0.6610725
164	0xbf04bd6e	-0.51851547
165	0x3f41afde	0.7565898
166	0xc004ce48	-2.0750904
167	0x3ff3e0cd	1.9052979
168	0xbe45632a	-0.1927611
169	0x3f522a6b	0.82095975
170	0x3f6639cb	0.89931935
171	0xbf82eadb	-1.0227922
172	0x3fb305cb	1.3986143
173	0xbeace1f5	-0.33766142
174	0xbf965cac	-1.1747031
175	0xbfc172b4	-1.511313
176	0xbf810476	-1.0079486
177	0x3fecdb96	1.8504512
178	0x3f49db66	0.788504
179	0xbf7a89fb	-0.9786679
180	0xbe848a79	-0.25886896
181	0xbfd525e7	-1.6652192
182	0xbf82ccf6	-1.0218799
183	0x3e64cc12	0.22343472
184	0x3fac4dc8	1.3461237
185	0x3f3e47aa	0.743281
186	0xbf0a073a	-0.53917277
187	0x3ed18075	0.40918317
188	0x3e5ca6b4	0.21547967
189	0xbf17fb1d	-0.59367543
190	0xbe69b1bf	-0.22821711
191	0xbf10b87a	-0.5653149
192	0x3e4f2f9e	0.20233008
193	0x3f4152e6	0.7551712
194	0x3ea7b59a	0.32755738
195	0x3f885270	1.0650158
196	0x3f383937	0.719623
197	0x3fa24745	1.2678
198	0xbf7ffac7	-0.9999203
199	0xbee6e4bf	-0.45096394
200	0x3f26c87e	0.65149677
201	0x4000a676	2.01016
202	0xbf2cf768	-0.6756501
203	0x3f30189e	0.6878756
204	0xbf379655	-0.71713763
205	0x3ddaa426	0.1067584
206	0x3f0bb8ab	0.54578656
207	0xbfbf1503	-1.4928287
208	0xbf9d4ebf	-1.2289656
209	0x3fa00bf9	1.2503654
210	0xbebd64de	-0.36991018
211	0xc015cb6c	-2.340541
212	0x3eaf2dd6	0.34214658
213	0x3e1f5ef0	0.1556356
214	0x3fddf7b8	1.7341223
215	0xc023f298	-2.5616817
216	0x3f83f1e7	1.0308198
217	0xbed019fc	-0.40644825
218	0xbf8c329d	-1.0952946
219	0xbfc9a469	-1.5753299
220	0xbeabcaf1	-0.3355327
221	0xbf7e39e2	-0.9930707
222	0x3f1aedae	0.6051892
223	0x3e7553af	0.23957704
224	0xbe7fd5a0	-0.24983835
225	0x3f1ae653	0.60507697
226	0xbfa5b5e3	-1.2946132
227	0xbf10f45e	-0.56622875
228	0xc01c2bbc	-2.4401693
229	0x3e8eb4d1	0.27872327
230	0xbf5ad011	-0.85473734
231	0xc00a4be3	-2.1608818
232	0x3dd938d4	0.10606542
233	0xbe0cfc71	-0.13768174
234	0xbe4ba271	-0.19886185
235	0xbf9f9b51	-1.2469274
236	0xbfdd81a6	-1.730519
237	0xbf68a089	-0.9086996
238	0xbffc8831	-1.9729062
239	0x3fc53fa4	1.5410047
240	0xbe668859	-0.2251295
241	0xbfd2178b	-1.6413435
242	0xbf9bb2df	-1.2163962
243	0xbfc0227f	-1.5010527
244	0xbf0f595f	-0.55995744
245	0x3eabd86b	0.3356355
246	0xbb20c5ba	-0.0024531917
247	0xbe450454	-0.19239932
248	0x3eff0a0b	0.4981235
249	0xbf470ab3	-0.777507
250	0xbd122ea1	-0.035689
251	0x4018c423	2.3869712
252	0xbe58b667	-0.21163331
253	0x3ef32a69	0.47493294
254	0x3f621e28	0.88327265
255	0xbffaa71d	-1.9582249

encoder.embedding.service_embed.weight f4 [100, 4]
0	0x3fb029e4	1.3762784
1	0x3fa4fc8b	1.288957
2	0x3f05af63	0.52220744
3	0xbf617661	-0.88071257
4	0xbf6c1d41	-0.9223214
5	0xbe8a7f7b	-0.27050385
6	0x3ebae47d	0.36502448
7	0xbc0f1e2e	-0.008735223
8	0x3f5bbd5b	0.8583581
9	0x3f801cc1	1.0008775
10	0xbe23b21b	-0.1598591
11	0x3f36bf2d	0.7138546
12	0x3e7cbed4	0.2468217
13	0x3fd7e996	1.686816
14	0x3ff672d9	1.9253799
15	0xbfa5d10b	-1.295442
16	0xbf89eea9	-1.0775958
17	0x3f95d487	1.1705483
18	0x3e91bcf1	0.28464463
19	0xc00b5b9c	-2.1774664
20	0x3f032716	0.51231515
21	0xc058e527	-3.3889863
22	0xbd01e156	-0.031709038
23	0xbfc715e8	-1.555356
24	0xbed51ef9	-0.41625193
25	0x3f204806	0.626099
26	0x3ea9b394	0.3314482
27	0xbdaca83d	-0.084305264
28	0xbfe5eda7	-1.7963151
29	0xbe81b75c	-0.25335205
30	0xc005d1c8	-2.090929
31	0xbe9c1acf	-0.30489203
32	0x3f300a95	0.68766147
33	0x3f8b654a	1.0890286
34	0x3e9c51ae	0.30531067
35	0xbf39cbac	-0.72576404
36	0xbef10400	-0.47073364
37	0xc006eed7	-2.1083276
38	0xbf9a75bf	-1.2067183
39	0x3f638205	0.8887027
40	0x3f45998d	0.77187425
41	0xbf49beb1	-0.78806597
42	0x3f916361	1.1358453
43	0xbdce330d	-0.10068331
44	0xbf3e15a2	-0.7425176
45	0x3dfe4355	0.12415186
46	0x3fc30312	1.5235312
47	0xbf10e41c	-0.5659807
48	0x3fddefca	1.7338803
49	0x3e04d2cf	0.12971042
50	0x3effebd4	0.4998461
51	0x3f9974bd	1.1988751
52	0xbf19fd76	-0.60152376
53	0xbe8c1a4b	-0.2736381
54	0x3e8f857d	0.2803153
55	0x3e4edc74	0.20201284
56	0xbea742b6	-0.32668084
57	0x3e0e55bf	0.13899897
58	0x3f03ce41	0.51486593
59	0xbd947bcd	-0.072501756
60	0xbfb875d2	-1.4410956
61	0xbfc49d83	-1.5360569
62	0x3f6bc923	0.92103785
63	0x3f019630	0.5061979
64	0x3eec8e12	0.4620214
65	0xbda45a94	-0.08025089
66	0x3fdb8971	1.7151319
67	0xbf4feae7	-0.8121781
68	0x3db9c2b3	0.09070339
69	0xbf95e224	-1.1709638
70	0xbf44b6ec	-0.76841617
71	0xbdb35b3d	-0.08757637
72	0xbfaeb19e	-1.3647954
73	0x3f84463f	1.0333937
74	0x3f9e96da	1.2389786
75	0xbec47bcb	-0.38375697
76	0xc03b1173	-2.92294
77	0x3f7b86c8	0.98252535
78	0xbe84198f	-0.2580075
79	0x3ee8fa08	0.4550326
80	0xbffcf29f	-1.9761542
81	0xc0025cce	-2.0369143
82	0x3fa9b3b2	1.3257964
83	0xbe296ef9	-0.16546239
84	0x3e95edf6	0.29283112
85	0xbfd23f8c	-1.6425643
86	0x4013c218	2.3087215
87	0xbfc44685	-1.5334021
88	0xbf23dc68	-0.6400819
89	0x3fbc858f	1.4728259
90	0x3fa90a54	1.3206277
91	0x3d9ee46b	0.07758411
92	0xbd54b5ca	-0.05193118
93	0x3f0e3ed3	0.5556461
94	0x3e9655d1	0.29362348
95	0xbf3fec78	-0.749702
96	0xbe8a0572	-0.2695728
97	0xbf342daa	-0.7038218
98	0x3f316a5b	0.6930291
99	0x3fa2992f	1.2702998
100	0xbfaad9b5	-1.3347689
101	0xbf33dc84	-0.70258355
102	0xbf5ce30e	-0.8628396
103	0x3e5a4f26	0.21319255
104	0xbe14108c	-0.14459437
105	0xbfead52d	-1.8346306
106	0x3f63fd0a	0.8905798
107	0x3e374b8a	0.1789991
108	0xbd9a4e35	-0.07534448
109	0xbf4c5987	-0.7982411
110	0x3f86cd5f	1.0531424
111	0x3efbbd5d	0.4916791
112	0x3ed5a176	0.41724747
113	0xbfcb0e95	-1.5863825
114	0xbf2dc804	-0.67883325
115	0xbe72be15	-0.23705323
116	0xc00753d2	-2.114491
117	0xbc813464	-0.015772052
118	0x3f1126e6	0.5669998
119	0xbfc06b1a	-1.5032685
120	0x3f8580da	1.0429947
121	0x3ee96ab0	0.4558921
122	0x3dada244	0.08478215
123	0xbde24660	-0.11048579
124	0xbff577a0	-1.9177132
125	0x3e750991	0.2392943
126	0xbf61d0f1	-0.88209444
127	0xbf20c2a9	-0.6279703
128	0x3d85d223	0.06534221
129	0x3f62cf14	0.88597226
130	0x3f361c45	0.71136886
131	0x3e881dc0	0.26585197
132	0x3fb084c3	1.3790516
133	0x3d12bd31	0.03582496
134	0x3f784c0a	0.96991026
135	0xbeaeeeff	-0.34166715
136	0x404c467d	3.1918023
137	0xbf5c9c45	-0.8617595
138	0xbe9011ef	-0.28138682
139	0xbf968fc3	-1.1762623
140	0x40131285	2.2980053
141	0x3f1c4b4d	0.610524
142	0x3f07388d	0.52820665
143	0x3f1a235f	0.6021022
144	0x3fa51d0c	1.2899489
145	0xbfd551af	-1.6665553
146	0x3f4a087c	0.78919196
147	0x3eebba0c	0.4604038
148	0xbf7ca22a	-0.9868494
149	0x3ffecd86	1.9906471
150	0xbf34e570	-0.70662594
151	0xbfc6d33e	-1.5533216
152	0xbf286422	-0.6577779
153	0x3f81afbe	1.0131757
154	0xbe37fc18	-0.1796726
155	0xbf06050f	-0.5235147
156	0xbf8d9ca6	-1.106343
157	0x3f628f96	0.88500345
158	0x3f83ee7c	1.0307155
159	0x3f9e654b	1.2374662
160	0xbf06a47e	-0.52594745
161	0x3dfb4c7f	0.1227045
162	0x3fc0f30b	1.5074171
163	0x3f7c39e8	0.9852586
164	0xbf8e56c3	-1.1120228
165	0xbed9f567	-0.4257004
166	0xbe9756f2	-0.29558522
167	0xbd88c9af	-0.06679093
168	0x3f86f11b	1.054233
169	0xbead72ce	-0.33876652
170	0x3fb36a4c	1.4016814
171	0xbfd33799	-1.6501342
172	0x3f2f8bf1	0.6857291
173	0x3e089b1b	0.13340418
174	0x3f0a50ce	0.5402955
175	0xbd5e8cda	-0.054333545
176	0xbf5ca04a	-0.8618208
177	0xbf4041ce	-0.7510041
178	0xbfa21760	-1.2663383
179	0xbe593567	-0.21211778
180	0xbfaa648d	-1.3311936
181	0xbeefad30	-0.4681182
182	0xbffdfcc3	-1.9842762
183	0x3f6297d2	0.8851291
184	0x3e44cdf7	0.19219194
185	0xbdf1fea6	-0.118161485
186	0xbeb50137	-0.3535249
187	0xbec7846e	-0.38968223
188	0x3f33eac1	0.7028008
189	0xbe825b51	-0.25460294
190	0x3f15d240	0.5852394
191	0x3fdd6b16	1.7298305
192	0xbefb8f7a	-0.491329
193	0xbe835e7f	-0.25658032
194	0x3f0a3c5a	0.5399834
195	0xc026eb89	-2.608126
196	0xbf89f05d	-1.0776478
197	0x3ea60d17	0.32431862
198	0xbfba490c	-1.4553542
199	0xbf63bff9	-0.889648
200	0xbfba45ec	-1.4552588
201	0x3ebcc1e8	0.3686669
202	0xbf618e25	-0.8810752
203	0x3f09745a	0.53693163
204	0xbee3500e	-0.44397014
205	0xbf899974	-1.0749955
206	0x3f3443f8	0.7041621
207	0xc018ff98	-2.3906002
208	0x3f87a797	1.0598019
209	0xbfd58b11	-1.6683065
210	0xbf638b13	-0.88884085
211	0x3e8563aa	0.260526
212	0xbf56f1d9	-0.8396278
213	0x3e864169	0.2622178
214	0xbb3ff4a3	-0.0029290102
215	0x3f76aa42	0.9635354
216	0xbec4a4a5	-0.38406864
217	0xbe5b4e66	-0.21416625
218	0xbfe24245	-1.7676474
219	0x3fabb648	1.3415003
220	0xbf3be7df	-0.7340068
221	0x3ec3b99d	0.3822755
222	0x3f380475	0.718818
223	0x3e861da0	0.26194477
224	0xbfaa139d	-1.3287235
225	0xbbec1022	-0.0072040716
226	0x3f2719e9	0.6527391
227	0x3ea63362	0.32461077
228	0xbf462401	-0.7739869
229	0xbfc606e4	-1.5470853
230	0xbfecc90a	-1.8498852
231	0xbf1cb4ed	-0.6121357
232	0xbfaf1dd5	-1.3680979
233	0x3f1c77db	0.61120385
234	0x3e59a52d	0.21254416
235	0x3fe9a43a	1.8253243
236	0x3ff0b791	1.880602
237	0x3f3773ff	0.7166137
238	0x3fae9ac5	1.3640982
239	0x3db14bad	0.08657012
240	0xbe8fca62	-0.28084093
241	0x3faee59d	1.3663822
242	0x402783ac	2.6174116
243	0xbfdb9629	-1.71552
244	0xbec3e953	-0.3826395
245	0x3f411cbf	0.7543449
246	0xbf8b910e	-1.0903642
247	0xbeb95a22	-0.36201578
248	0xbdd1d354	-0.10245386
249	0x3fc655e2	1.5494959
250	0x3f1d1e26	0.6137413
251	0x3e45f0ab	0.19330089
252	0x4041bce5	3.0271542
253	0x3f13f954	0.5780232
254	0xbe131115	-0.14361985
255	0x3e1b5a47	0.15171157

encoder.embedding.status_embed.weight f4 [100, 4]
0	0xbe1ed62a	-0.15511385
1	0xbf57d218	-0.8430495
2	0x3d057b79	0.032588456
3	0xbf6cb4f3	-0.92463607
4	0x3fe31129	1.7739612
5	0xbf7d0db7	-0.9884905
6	0x3f2d540d	0.67706376
7	0xbf5acc4b	-0.85467976
8	0xbfc1120e	-1.5083635
9	0xbdec2f0a	-0.115324095
10	0x3f3c3d63	0.7353117
11	0xbfa149a6	-1.2600601
12	0xbfb7cc5c	-1.435924
13	0xbfb230f7	-1.3921193
14	0xbeb4fd68	-0.35349584
15	0x3f21f8f4	0.632705
16	0xbedaff9a	-0.42773134
17	0xbe8774b1	-0.26456216
18	0xbf466421	-0.77496535
19	0x3f8091ed	1.0044533
20	0x3f7e22cc	0.99271846
21	0xbfc5c7d1	-1.5451604
22	0xbf2d57e8	-0.6771226
23	0x3fe0f5f3	1.7575058
24	0xbf804f89	-1.0024272
25	0xbffc9d27	-1.9735459
26	0x3f00020f	0.5000314
27	0x3da32fe8	0.07968122
28	0xbdef4423	-0.11682918
29	0x3fb50fa2	1.4145396
30	0xbf5bdfac	-0.8588817
31	0x3ebf75ad	0.37394467
32	0x3f78c4c1	0.9717522
33	0x3f9af628	1.2106371
34	0xbffc4523	-1.9708599
35	0x3f3e445e	0.7432307
36	0xbf146f8f	-0.57982725
37	0xbf78c0cd	-0.9716919
38	0x3fb56d1c	1.4173923
39	0xbfd9c9e9	-1.7014743
40	0x3f514f45	0.8176158
41	0xbe19fd66	-0.1503807
42	0xbf8af92a	-1.0857289
43	0xbfde6645	-1.737496
44	0xbe10ce2e	-0.14141151
45	0xbf8482b4	-1.0352387
46	0xbfbd5648	-1.4791956
47	0xbf397fed	-0.72460824
48	0x3fbc519e	1.4712408
49	0xbf4d3ef4	-0.80174184
50	0xbf881adc	-1.0633197
51	0xbfd18311	-1.6368123
52	0x3f8af422	1.0855753
53	0x3f99ae2f	1.2006282
54	0xbf49faee	-0.78898513
55	0xbcd70a68	-0.02625008
56	0x3f82f506	1.0231025
57	0xbfe358f9	-1.7761527
58	0xbfb6c226	-1.4277999
59	0x3edc3fe7	0.43017504
60	0x3e5a33dc	0.21308845
61	0xbf1482d8	-0.5801215
62	0xbf93b242	-1.1538775
63	0x3f835313	1.0259727
64	0xc02546f0	-2.5824547
65	0xbf0cff15	-0.55076724
66	0x3f829777	1.0202473
67	0x3f3b7a3f	0.7323341
68	0xbf68a014	-0.9086926
69	0x3f0e8b13	0.5568096
70	0xbf0d686f	-0.5523748
71	0x3ec821ab	0.39088187
72	0x3e80ea01	0.2517853
73	0xbeb7486e	-0.35797447
74	0xbf07f84c	-0.53113246
75	0x3f8c811f	1.0976905
76	0x3ed5f152	0.41785675
77	0x3f269663	0.6507322
78	0x3f0cdf6a	0.550284
79	0x3fdbc3bc	1.7169108
80	0xbcecba1f	-0.028897343
81	0x3eff0d77	0.4981496
82	0x3f5184fc	0.81843543
83	0x3fdf4030	1.7441463
84	0x3f20d2ef	0.6282186
85	0x3fc32866	1.5246704
86	0xbf87e072	-1.061537
87	0x3fa14bc7	1.260125
88	0xbfb06d7f	-1.3783416
89	0xbf8baea8	-1.0912676
90	0xbfba31b4	-1.4546418
91	0x3f072587	0.5279164
92	0x3cae6d2b	0.02129229
93	0xbfb294cc	-1.3951659
94	0x3f5e4aac	0.8683269
95	0x3f680175	0.90627223
96	0x3fd0ea5c	1.6321521
97	0x3e7d8064	0.24756008
98	0x3e5619a5	0.2090822
99	0xbf92b165	-1.1460387
100	0x3f006ee5	0.5016921
101	0xbf352539	-0.7075992
102	0xbfa1e580	-1.2648163
103	0x3dee46f0	0.11634624
104	0x3f823f4f	1.017557
105	0x3ef81ccd	0.48459473
106	0x400f5dd3	2.2401016
107	0x3d9c3566	0.076273724
108	0xbea925c1	-0.33036616
109	0xbf9fac94	-1.2474542
110	0xbe8575c0	-0.260664
111	0x3f0ef5da	0.5584389
112	0x3d8bde8a	0.06829555
113	0xbf8c032d	-1.0938469
114	0xbe4b3b1d	-0.19846769
115	0xbda42fce	-0.080169305
116	0xbf3f6f93	-0.74779624
117	0x3f870030	1.0546932
118	0x3dd65767	0.104658894
119	0x3cf56ec1	0.029960038
120	0x3e4918a0	0.196383
121	0xbf620435	-0.8828767
122	0xbdee9b70	-0.11650741
123	0x400427a4	2.0649195
124	0xbe1a1c3c	-0.15049833
125	0x3f665bca	0.8998381
126	0xbf996f2f	-1.1987056
127	0x3ed4ebfe	0.41586298
128	0xbfd0a336	-1.6299808
129	0x3ebf4e06	0.37364215
130	0xbfaf5be9	-1.3699924
131	0xbfc5c14f	-1.5449618
132	0xbf594fd7	-0.8488745
133	0xbf221310	-0.6331034
134	0x3f81f22f	1.0152034
135	0xbfcd6b0d	-1.6048294
136	0xbea56516	-0.32303685
137	0xbeb2ce07	-0.3492281
138	0x3f7bbf88	0.9833913
139	0xbfa5c338	-1.2950201
140	0xbfb8e1b9	-1.4443885
141	0xbffdaa0e	-1.9817522
142	0x400bdbd3	2.185292
143	0xbf8d8bb6	-1.1058261
144	0xbf605f2f	-0.8764524
145	0x3f41463f	0.7549781
146	0xbf8ba306	-1.0909126
147	0x3f85d447	1.0455407
148	0x3f57a672	0.8423835
149	0x3fc44cf3	1.5335983
150	0xbf44a4f8	-0.7681422
151	0x3fadefc0	1.3588791
152	0xbd84a10f	-0.06476032
153	0x3fc1341a	1.5094025
154	0x3d715888	0.05892232
155	0xbec8e6ab	-0.39238486
156	0xbfc4adeb	-1.5365576
157	0xbf7f4952	-0.9972125
158	0x3ec8a1a9	0.39185837
159	0xbf92e5b0	-1.1476345
160	0x40063e5a	2.0975556
161	0xbe88d7e1	-0.26727203
162	0x3e4d4601	0.20046236
163	0xbe3192d8	-0.17341173
164	0xbf6d00d6	-0.925794
165	0xbf87193b	-1.0554575
166	0xbed8a764	-0.4231521
167	0xbee8b593	-0.4545103
168	0x3e733f4b	0.23754613
169	0x3fdb09d2	1.7112372
170	0x3f884bfd	1.064819
171	0x3f12a532	0.5728332
172	0xbedb7fe5	-0.42871013
173	0x3f3b70d3	0.7321903
174	0xbf26ecda	-0.65205157
175	0xbfe3e406	-1.7803962
176	0x3eb19c3c	0.3468951
177	0xbe9131f8	-0.28358436
178	0x3f182db4	0.5944474
179	0x3ffbc63a	1.9669869
180	0xc0169923	-2.3530967
181	0xbf60e523	-0.87849635
182	0xbe267eb5	-0.16259272
183	0xbf8e9dc0	-1.1141891
184	0xbff44100	-1.9082336
185	0x3e1a694b	0.15079229
186	0xbef6771e	-0.48137754
187	0xbf73896e	-0.95131576
188	0x3fe3ccde	1.7796896
189	0xbfcaa84b	-1.5832609
190	0x3bdd0709	0.0067452234
191	0xbe90ca4b	-0.28279337
192	0xbf1b15bf	-0.60580057
193	0x3f5c3953	0.8602497
194	0x3fa182db	1.2618059
195	0xbfb5d8a0	-1.4206734
196	0x3ea14fce	0.315062
197	0xbe86d843	-0.2633687
198	0x3eac3827	0.3363659
199	0x3ee0f55c	0.43937194
200	0xc010bd20	-2.2615433
201	0xbf895080	-1.0727692
202	0x3fe8f916	1.8201015
203	0xbeff7bff	-0.4989929
204	0x3f7b1f8e	0.98095024
205	0xc0184f4f	-2.3798406
206	0x3f018524	0.5059378
207	0x3e818d39	0.25303057
208	0xbf44fe40	-0.76950455
209	0x3f0fabaf	0.56121343
210	0xbf607cc1	-0.8769036
211	0xbe6f8e7c	-0.23394197
212	0xbf718429	-0.94342285
213	0x3fb381a1	1.4023935
214	0xbfa17e9f	-1.2616767
215	0xbfa5800f	-1.2929705
216	0xbf3c4fcd	-0.73559266
217	0xc020184a	-2.5014825
218	0x3d6436b0	0.055716217
219	0x3e999d02	0.300026
220	0x3deb53bd	0.11490581
221	0xbf11b0a3	-0.5691015
222	0xbf86c684	-1.0529332
223	0xc004a484	-2.0725412
224	0xbf31d1fb	-0.6946103
225	0x3cdca78a	0.026935358
226	0x3bcf80d2	0.0063324952
227	0x3c9e81bd	0.019348973
228	0xbd7356c9	-0.059408937
229	0xbf875add	-1.0574604
230	0x3f48adf6	0.78390443
231	0xc00a1310	-2.1574135
232	0x3f87da1d	1.0613438
233	0xbf37117a	-0.7151104
234	0x3f8b4f57	1.0883588
235	0x3f651226	0.8948082
236	0xc03372d9	-2.8038847
237	0xbeab36a0	-0.33440113
238	0xbf8f1e95	-1.1181208
239	0xbf68a0f9	-0.90870625
240	0x3f81f5cb	1.0153135
241	0xbfab88bb	-1.3401102
242	0x3f608b5c	0.87712646
243	0x3eb2f05d	0.34949008
244	0x3fcd7418	1.6051054
245	0x3f5c3f75	0.8603433
246	0x3cc0f67e	0.023555037
247	0xc019fd10	-2.4060707
248	0x3f289721	0.65855604
249	0x3fbd49c4	1.4788136
250	0xbf28cb88	-0.65935564
251	0x3f1703d8	0.5899024
252	0xbfcc4d73	-1.5961136
253	0xbe48065e	-0.19533679
254	0xbec10709	-0.3770068
255	0x3f131b66	0.5746368

encoder.gcn1.weight f4 [12, 4]
0	0x3ed852a5	0.42250553
1	0xbf194197	-0.5986571
2	0x3f52bfcd	0.82323915
3	0xbf23968c	-0.6390159
4	0xbe67da4e	-0.2264187
5	0x3ed1533a	0.4088381
6	0x3e3a020d	0.18164845
7	0x3eeebe77	0.46629688
8	0x3f7ef935	0.9959901
9	0xbf0af7a9	-0.5428415
10	0x3f00cb78	0.5031047
11	0xbddc92d8	-0.10770196
12	0x3f83001c	1.0234408
13	0xbef31398	-0.47475886
14	0xbe85ce77	-0.26134083
15	0x3f870e99	1.055133
16	0x3d9a06f6	0.07520859
17	0xbf22511c	-0.63405013
18	0x3dfb627d	0.122746445
19	0x3ef06bac	0.46957147
20	0xbe24f132	-0.16107634
21	0xbed0f662	-0.40812975
22	0x3f068279	0.52542835
23	0x3e879239	0.26478747
24	0xbe40f5ec	-0.18843812
25	0xbecd1524	-0.40055192
26	0xbed43621	-0.41447547
27	0x3eaff4ab	0.34366354
28	0x3eaaffed	0.3339838
29	0x3de6041d	0.11231253
30	0x3ec1843c	0.377962
31	0x3e9bbbec	0.3041681
32	0x3e09a2b0	0.13440967
33	0x3e1bf322	0.15229467
34	0x3eac1e58	0.336169
35	0xbd874c4c	-0.06606349
36	0xbee1f2ca	-0.44130546
37	0x3ebab5c5	0.36466804
38	0x3e889345	0.26674858
39	0x3e33f31a	0.17573205
40	0xbbcb64f2	-0.006207102
41	0xbe0c6c79	-0.13713254
42	0xbe95b42e	-0.2923903
43	0xbf04f326	-0.51933515
44	0x3dad695c	0.08467361
45	0xbc111d62	-0.008857103
46	0x3ee73940	0.45160866
47	0xbde54df6	-0.111965105

encoder.gcn1.bias f4 [4]
0	0xbe52570a	-0.20541015
1	0x3d708b3e	0.05872654
2	0x3db19d9c	0.0867264
3	0x3e58479e	0.2112107

encoder.gcn2.weight f4 [4, 8]
0	0x3ef75b31	0.4831176
1	0xbed74812	-0.42047173
2	0xbf1acea4	-0.6047156
3	0x3fbe38e8	1.4861116
4	0xbfa10138	-1.2578497
5	0xbeb9bf8b	-0.36278948
6	0xbfe1cc7e	-1.7640531
7	0xbee13fd5	-0.43994012
8	0xbf0b10b7	-0.5432238
9	0x3d525ad3	0.051356148
10	0xbf1294cc	-0.57258296
11	0xbddadc29	-0.106865235
12	0xbf1ffa3f	-0.6249122
13	0xbfbec170	-1.4902782
14	0xbe4dbbe9	-0.20091213
15	0xbe01641b	-0.12635843
16	0xbc9ae19e	-0.01890641
17	0x3e9dfa27	0.30854914
18	0xbea09560	-0.31363964
19	0x3da431b2	0.08017291
20	0xbf6ce6d6	-0.9253973
21	0x3c793e7d	0.015212652
22	0xbf09fb75	-0.5389932
23	0xbf54de92	-0.83152115
24	0x3e89ffa2	0.26952845
25	0xbf3b07bf	-0.73058695
26	0x3f70650e	0.939042
27	0xbe2fb5c4	-0.17159182
28	0xbf216a2c	-0.6305263
29	0xbe8412ec	-0.25795686
30	0xbf6199b9	-0.8812519
31	0xc018bb02	-2.386414

encoder.gcn2.bias f4 [8]
0	0x3c921d53	0.017836249
1	0x3e0bbedf	0.1364703
2	0xbd25420d	-0.040346194
3	0xbc892dfc	-0.01674556
4	0xbf4da5c1	-0.80331045
5	0xbefff8e6	-0.49994582
6	0xbf5c77a3	-0.8612005
7	0xbf2244e2	-0.63386357

encoder.depth_weight.weight f4 [50, 1]
0	0xbf5fc64d	-0.8741196
1	0xbe949124	-0.29016984
2	0xbe833217	-0.25624153
3	0x4043230d	3.0490143
4	0x3efa4591	0.488812
5	0x3f820324	1.0157208
6	0x3f8dc317	1.1075162
7	0x3eacb79b	0.3373383
8	0xbe7b5315	-0.24543412
9	0xbf68d233	-0.9094574
10	0xbfa299d8	-1.2703199
11	0xbf71d0aa	-0.9445902
12	0xbf571f73	-0.8403236
13	0xbe137af6	-0.14402375
14	0xbe58a7eb	-0.21157806
15	0x401d9afc	2.4625845
16	0x400bc28f	2.18375
17	0x3d880518	0.066415966
18	0xc04aa492	-3.1662946
19	0x3e8d961f	0.27653596
20	0x3ff51060	1.9145622
21	0x3f7a12d3	0.97684973
22	0x3f8a61e1	1.081112
23	0x40019c42	2.0251622
24	0x3d12c25b	0.035829883
25	0xbf6264c5	-0.8843501
26	0xbdcbca89	-0.0995074
27	0x3f153049	0.582768
28	0xbea84244	-0.32863057
29	0xbf85479e	-1.0412481
30	0x3e814aa3	0.25252256
31	0xc042d732	-3.0443845
32	0x3ff32c3e	1.8997877
33	0x3f3d440c	0.73931956
34	0x3d8489bd	0.06471584
35	0xbebfa598	-0.37431026
36	0xbf04b66d	-0.5184086
37	0x3f2b69dd	0.6695841
38	0xbff4371a	-1.9079316
39	0xbe74b0fc	-0.23895639
40	0x3f9691c3	1.1763233
41	0x3ea3e3fd	0.3200988
42	0x3e522609	0.20522322
43	0xbf13c6ff	-0.5772552
44	0x3f52fe68	0.82419443
45	0x3ec3b3e1	0.38223174
46	0xbd9c8071	-0.07641686
47	0xbf8c0b2c	-1.0940909
48	0x3ee09e60	0.4387083
49	0x3f7df903	0.99208087

decoder.mlp.0.weight f4 [4, 4]
0	0xc026074d	-2.5941956
1	0xbf56d52a	-0.8391901
2	0xbfb286fe	-1.3947446
3	0xbf85958a	-1.0436261
4	0xbc931223	-0.017952984
5	0xbd658de6	-0.056043528
6	0x3ee32b9f	0.44369218
7	0xbed984ea	-0.42484218
8	0xbf6b75f5	-0.91976863
9	0xbeedc4fa	-0.46439344
10	0xbfc74e65	-1.5570799
11	0x3f542301	0.8286591
12	0x3d4d0af2	0.050059266
13	0x3f748fea	0.95532095
14	0x3eebe5e4	0.4607383
15	0xbf7ff2e2	-0.99979985

decoder.mlp.0.bias f4 [4]
0	0x400cc094	2.199254
1	0x3ff4b0d7	1.9116467
2	0x3fc50118	1.5390959
3	0x3fa7d994	1.3113275

decoder.mlp.2.weight f4 [4, 4]
0	0xc0190aab	-2.3912761
1	0x3f5600ac	0.83594775
2	0xbfcf2a5c	-1.6184802
3	0x3f8d5031	1.1040097
4	0x40506b86	3.2565627
5	0x3fdadec4	1.7099233
6	0x40104f78	2.2548504
7	0xbe29414c	-0.16528815
8	0xbecd01fe	-0.40040582
9	0xbeafdfdc	-0.3435048
10	0x400d3604	2.2064219
11	0x3f973ea0	1.1815987
12	0x3fc09536	1.5045536
13	0x3ea3232a	0.31862766
14	0xbfa62888	-1.2981119
15	0x3f14d132	0.58131707

decoder.mlp.2.bias f4 [4]
0	0x3f125395	0.57158786
1	0x3f9f3c0d	1.2440201
2	0x3fb235cb	1.3922666
3	0x3ed80e9e	0.42198652
