tracegnn/models/gtrace/model.pth (torch, 49209 bytes, 34 tensors)

embedding.operation_embed.weight f4 [100, 4]
1.4822904 1.144111 0.6928843 -1.6197151 0.52187854 -0.94968945 -0.03313027 -1.2344048
-0.6994165 0.85879856 -0.96556497 -0.10526726 -1.007914 -0.07079926 -0.72300315 0.68688285
1.3983514 0.2078795 -0.08248096 0.64639086 -0.5832039 0.82951486 0.616022 1.2928288
0.9839896 0.9972869 0.469613 1.0267607 -0.22805068 0.73793316 0.4247286 0.71890557
-0.33382082 -1.4542956 0.57444704 1.0938904 0.009811713 -0.32816976 -0.18624434 -0.6423658
-1.1981747 0.7659026 -0.67678344 -0.46243465 -0.17723721 0.9928572 -0.16870931 -0.54316324
-0.0143727595 -0.9952581 0.6528349 0.26562542 0.5387915 0.3427929 0.10927746 -0.7052516
-1.1413796 -2.5215795 0.07455229 3.6632526 0.51518685 -0.3929796 -0.37893453 1.1180376
1.4796246 0.49472204 1.8804817 0.43502045 0.8379881 -1.1481915 -0.31614542 0.93450475
-0.06524361 0.36668983 0.17309834 0.20092334 1.6689365 -0.9686864 -0.614462 -0.7446001
1.132761 -0.72254753 -0.21180466 -0.6053299 0.41246727 0.40357062 0.87787926 0.03972739
0.76786 -0.33282495 -0.57298523 0.64793605 -1.526784 -0.5510561 0.7677408 0.58055747
-1.9305122 0.37540007 0.6035488 0.022037 0.72864765 -0.4438049 1.3187686 -0.14843325
1.2035644 0.38530374 1.0051917 0.17344065 0.20378467 0.97939736 -0.0010083965 -0.23355106
-1.5845985 0.32569548 -0.6983572 0.39703602 1.3769674 -0.6281735 0.53532815 1.1447481
-0.44108278 -0.2046121 -0.9028946 2.068261 0.8423445 0.26146543 0.553844 0.31647894
1.5561212 1.7262522 -2.164291 0.4476016 -1.1726623 2.5140586 0.3448028 2.248693
0.59006584 0.12111359 -1.6765451 0.47555524 0.7129269 -0.02801972 0.18053569 0.96162015
-0.49062666 0.8285512 1.6301229 1.0045114 0.084703445 0.057459675 -0.68854433 -0.008915876
0.40590987 0.6294716 -0.19585007 1.2111003 -2.0013943 -0.21213055 -0.3449075 0.6114212
-1.7142894 0.39921185 -0.23041582 -0.30248573 -0.36567348 -0.600156 0.092220984 -1.5543724
-1.232474 1.0407265 0.99144685 0.04022905 -1.1899332 0.5821043 0.5965776 1.5589365
0.027553245 0.09276391 -0.619768 -0.15968122 -0.7169092 -1.2238718 -0.873871 -0.40201512
-0.39907283 -1.1548755 -1.4820886 0.09835095 0.7868869 -0.4275542 0.54177254 0.54608005
1.3649626 -0.70891374 0.7403731 -0.25925365 -0.90414315 0.2754374 0.36829683 1.0413395
0.40468308 1.6247084 -0.40060276 -0.71695393 0.14243783 0.82210606 1.0050586 0.35373437
-0.6266594 -0.7856024 -0.3807259 -0.45560265 0.023741907 0.1764381 -0.11243569 -2.048907
-0.23767121 0.8592225 -1.2306087 0.9806187 0.23803188 -0.38486707 0.7961867 1.299779
1.1518773 0.31736478 0.48559523 -1.6471603 -0.44052488 0.06428537 0.3076312 1.5302098
0.05864956 -0.800201 -1.6512204 -1.007903 -0.32464787 -0.36944935 -0.31425962 -0.088844985
-0.71474403 0.21246338 -0.41454077 0.3558456 -0.92192966 0.115174465 -0.39903837 1.3138516
0.58856815 -0.1596401 0.36822745 0.5044568 0.41519442 0.43502125 0.38908514 0.17112596
00000000: b1bb bd3f 3b72 923f de60 313f d352 cfbf
00000010: d599 053f d91e 73bf 9bb3 07bd fa00 9ebf
00000020: f60c 33bf 39da 5b3f 442f 77bf 5c96 d7bd
00000030: 5303 81bf 34ff 90bd bc16 39bf 8ed7 2f3f
00000040: 2efd b23f 5dde 543e c7eb a8bd df79 253f
00000050: da4c 15bf 165b 543f 9eb3 1d3f 6a7b a53f
00000060: bee6 7b3f 324e 7f3f 1d71 f03e e56c 833f
00000070: 1e86 69be 30e9 3c3f 0776 d93e 320a 383f
00000080: 90ea aabe 5c26 babf f60e 133f 9a04 8c3f
00000090: 4fc1 203c de05 a8be d6b6 3ebe 1672 24bf
000000a0: ca5d 99bf 3112 443f ae41 2dbf 3cc4 ecbe
000000b0: ac7d 35be e42b 7e3f 22c2 2cbe bf0c 0bbf
000000c0: b97b 6bbc 3cc9 7ebf 3020 273f 0e00 883e
000000d0: 3dee 093f 8d82 af3e dccc df3d 5e8b 34bf
000000e0: ba18 92bf 8f61 21c0 dfae 983d bb72 6a40
000000f0: 49e3 033f 9f34 c9be b503 c2be db1b 8f3f
00000100: 5764 bd3f 354c fd3e a0b3 f03f 00bb de3e
00000110: 6386 563f f0f7 92bf d0dd a1be b43b 6f3f
00000120: 719e 85bd c5be bb3e b140 313e d9be 4d3e
00000130: b69f d53f d5fb 77bf 624d 1dbf 1d9e 3ebf
00000140: 50fe 903f e0f8 38bf 52e3 58be e6f6 1abf
00000150: e92e d33e cfa0 ce3e b2bc 603f 30b9 223d
00000160: 7992 443f 0868 aabe 29af 12bf 23df 253f
00000170: a86d c3bf 0312 0dbf a98a 443f 6a9f 143f
00000180: 061b f7bf 7034 c03e 2d82 1a3f f086 b43c
00000190: a788 3a3f 653a e3be 69cd a83f e3fe 17be
000001a0: 660e 9a3f 8846 c53e 1faa 803f 6d9a 313e
000001b0: eeac 503e c9b9 7a3f 2c2c 84ba 0228 6fbe
000001c0: 20d4 cabf 8fc1 a63e 8ac7 32bf 4e48 cb3e
000001d0: 7840 b03f facf 20bf 440b 093f 1b87 923f
000001e0: 9ad5 e1be d685 51be 1a24 67bf 635e 0440
000001f0: e4a3 573f ccde 853e b8c8 0d3f 8709 a23e
00000200: fb2e c73f d5f5 dc3f be83 0ac0 092c e53e
00000210: cc19 96bf 56e6 2040 fe89 b03e 96ea 0f40
00000220: 8e0e 173f 670a f83d 0899 d6bf fa7b f33e
00000230: 6182 363f 9d89 e5bc 59de 383e bd2c 763f
00000240: 6b33 fbbe ee1b 543f dea7 d03f d493 803f
00000250: 0079 ad3d d65a 6b3d 7144 30bf e513 12bc
00000260: 6bd3 cf3e 0d25 213f ec8c 48be 5605 9b3f
00000270: d816 00c0 c038 59be b797 b0be 1a86 1c3f
00000280: d66d dbbf 7f65 cc3e 20f2 6bbe 69df 9abe
00000290: 8e39 bbbe d3a3 19bf 5bde bc3d adf5 c6bf
000002a0: b5c1 9dbf 8736 853f 76cf 7d3f 37c7 243d
000002b0: bb4f 98bf ca04 153f 4fb9 183f 3b8b c73f
000002c0: 58b7 e13c 01fb bd3d 1ea9 1ebf 7983 23be
000002d0: 5d87 37bf d5a7 9cbf 03b6 5fbf edd4 cdbe
000002e0: 4653 ccbe f6d2 93bf 14b5 bdbf 396c c93d
000002f0: 6b71 493f 62e8 dabe 9bb1 0a3f e7cb 0b3f
00000300: 18b7 ae3f 5f7b 35bf 1789 3d3f e5bc 84be
00000310: ed75 67bf 2206 8d3e 6791 bc3e 9d4a 853f
00000320: 9f32 cf3e 72f6 cf3f ce1b cdbe 4b8a 37bf
00000330: 39db 113e 8b75 523f c3a5 803f ac1c b53e
00000340: c06c 20bf 3d1d 49bf 81ee c2be c044 e9be
00000350: 637e c23c 30ac 343e af44 e6bd 4b21 03c0
00000360: 1560 73be 01f6 5b3f 9684 9dbf d409 7b3f
00000370: a1be 733e 4c0d c5be e4d2 4b3f 295f a63f
00000380: b770 933f a37d a23e f09f f83e 26d6 d2bf
00000390: 7a8c e1be 0ca8 833d d681 9d3e eadd c33f
000003a0: 853a 703d f9d9 4cbf 315b d3bf f702 81bf
000003b0: 3f38 a6be 7728 bdbe a3e6 a0be 5cf4 b5bd
000003c0: 77f9 36bf 0090 593e b03e d4be 6531 b63e
000003d0: 9503 6cbf 97e0 eb3d c24e ccbe 4a2c a83f
000003e0: 67ac 163f b278 23be 4f88 bc3e 1524 013f
000003f0: 5d94 d43e 1bbb de3e 2b36 c73e a53b 2f3e

embedding.service_embed.weight f4 [100, 4]
0.019000715 -0.8186118 -0.58478767 -0.31347743 2.0497863 -1.1022717 -1.2195997 0.8790726
0.6302882 -1.2582518 1.2467644 0.7953972 0.077750385 -0.4741823 -0.24175985 0.9313412
0.59168863 -0.94842035 -0.46463808 0.7885581 -0.2835926 -1.1010654 -0.81451756 -1.0935462
-0.45681724 -0.40528584 0.28283715 -0.017844552 0.7960439 -0.48189652 -0.3962461 0.5310129
-0.5691932 1.0773674 -0.36154693 0.8517944 0.32836667 -0.16933061 -0.41123033 0.22577032
0.3615377 -1.1356052 -0.022952016 -1.2779223 -0.035604082 1.5317113 0.9980085 -0.5633801
-1.2731495 -1.0812178 -1.2527771 -0.4660228 -0.3301642 -0.75525856 -0.49391228 0.6358624
1.224202 -0.0929372 -0.3715693 0.08715578 0.059349302 -0.7098825 -0.97080886 0.83545923
0.8436033 -0.52593595 0.050804526 -0.00059524964 0.12466672 0.9200118 -1.0047678 -1.0800182
-0.81520176 0.23518749 0.31928897 -0.5518818 2.18004 1.5027293 1.5759647 -0.836991
1.2475066 0.65484595 -0.30806428 -0.46834847 -0.3908602 -0.4757816 -1.2669988 -0.7971162
-0.34640157 -0.05613004 -0.42151958 -0.8789206 -0.34520802 -0.0234274 0.29465213 -0.03443943
0.9076808 -0.2549545 0.4996398 0.073048174 -0.57893836 -0.4978907 -0.98639834 1.5118226
-0.74144644 -1.9745426 0.54587656 0.6306747 0.47805747 0.3255389 -0.26069924 0.39845666
-1.0491039 0.14843513 -0.46951163 0.12556945 1.1617081 0.16331756 -0.5578679 -0.73293084
0.40132222 -0.35683522 0.14029638 -0.29744345 -1.3774995 0.07176643 -1.4733306 -0.494002
1.0337731 -0.99407387 0.5894438 0.49648625 0.27179193 -2.036588 -1.1212331 -0.74713033
0.19541737 -0.13774249 0.9225675 -0.33018056 0.77716887 0.47005302 0.9391536 -0.46743795
-1.3366668 -0.09642801 -1.050669 0.8552291 -0.47909728 -0.6070898 -0.12910047 1.2641371
1.5439794 -0.96396774 0.8607003 1.3641051 -1.5936471 -0.3173394 -0.75153244 -0.025873512
1.4304391 2.0171103 0.2838958 0.2925474 0.15306818 -0.18161577 0.23340078 -0.34622565
0.36455357 0.5002811 0.8971415 0.013028218 0.409703 -0.46428066 -0.13405152 0.46864036
-0.61788183 -0.86226714 0.15049976 -0.60119355 -1.3768824 -0.2012183 -0.33866704 1.6807097
-0.36932054 -0.99017334 0.5683872 0.026073933 -0.24023536 -0.19552852 -0.9273762 -0.7340359
0.047137614 0.065588474 0.57550323 -0.12582046 -0.6989151 0.24077621 0.61929345 -0.85647696
0.38321742 -0.92308253 0.09778389 0.33875617 0.4906145 0.122920245 1.3614331 0.4821896
-1.4413327 1.7892371 -0.70802295 0.51241744 -0.33867833 -1.7831262 0.99587554 0.17129427
-0.65259635 1.2684646 1.2312526 -0.060455903 0.33158493 0.28335986 0.5875598 0.9071283
-0.31830987 0.39879203 -0.5396626 -0.33258292 0.10883276 0.054697894 0.43336758 -0.44512188
-0.83373463 -0.29918355 0.6251141 1.1524447 0.033767506 1.1110607 0.17849088 0.38962957
-0.9836601 -0.029560933 1.472209 0.2598919 0.09620053 -0.58628684 -0.91585267 0.59664524
0.3505672 0.19256853 -1.0470455 1.3860756 -0.05718839 -0.120498896 -0.66990376 -0.49317342
00000000: 63a7 9b3c 8b90 51bf a5b4 15bf 1d80 a0be
00000010: b32f 0340 3d17 8dbf d81b 9cbf e70a 613f
00000020: 915a 213f 650e a1bf fa95 9f3f 279f 4b3f
00000030: 983b 9f3d 06c8 f2be e58f 77be 606c 6e3f
00000040: e878 173f adcb 72bf 0be5 edbe f2de 493f
00000050: 0d33 91be b6ef 8cbf 3984 50bf 52f9 8bbf
00000060: f3e3 e9be a081 cfbe 08d0 903e bd2e 92bc
00000070: 88c9 4b3f 24bb f6be c5e0 cabe 76f0 073f
00000080: a5b6 11bf 2de7 893f ae1c b9be 330f 5a3f
00000090: ad1f a83e 0165 2dbe c88c d2be 5630 673e
000000a0: 781b b93e 835b 91bf de05 bcbc f592 a3bf
000000b0: 96d5 11bd 1e0f c43f 7c7d 7f3f ae39 10bf
000000c0: 90f6 a2bf 5865 8abf 005b a0bf 8a9a eebe
000000d0: 480b a9be a058 41bf 12e2 fcbe e1c7 223f
000000e0: a7b2 9c3f dc55 bebd 553e bebe bb7e b23d
000000f0: 4118 733d dcba 35bf ee86 78bf a8e0 553f
00000100: 63f6 573f bda3 06bf 6818 503d 870a 1cba
00000110: 4451 ff3d e585 6b3f 3b9c 80bf 093e 8abf
00000120: 10b1 50bf fdd4 703e d879 a33e 2048 0dbf
00000130: c685 0b40 6f59 c03f 36b9 c93f 0b45 56bf
00000140: 4cae 9f3f fca3 273f 9aba 9dbe 5fcb efbe
00000150: d41e c8be a599 f3be 042d a2bf cf0f 4cbf
00000160: 8c5b b1be 9de8 65bd 6ad1 d7be f100 61bf
00000170: 1bbf b0be d2ea bfbc a5dc 963e 5c10 0dbd
00000180: c55d 683f 6589 82be cad0 ff3e 489a 953d
00000190: 4e35 14bf 88eb febe 9a84 7cbf 6783 c13f
000001a0: 6fcf 3dbf d0bd fcbf 91be 0b3f e673 213f
000001b0: f3c3 f43e 09ad a63e 5f7a 85be 8302 cc3e
000001c0: 0949 86bf 61ff 173e d463 f0be 4795 003e
000001d0: dab2 943f b83c 273e 6ed0 0ebf 5ba1 3bbf
000001e0: 1b7a cd3e 1bb3 b6be dba9 0f3e 824a 98be
000001f0: e751 b0bf 47fa 923d 1996 bcbf d5ed fcbe
00000200: ad52 843f a07b 7ebf cae5 163f 7233 fe3e
00000210: 5028 8b3e 7557 02c0 9184 8fbf ef43 3fbf
00000220: 7e1b 483e 5e0c 0dbe 622d 6c3f 6d0d a9be
00000230: 8af4 463f caaa f03e 5f6c 703f 0754 efbe
00000240: e617 abbf 0c7c c5bd 527c 86bf 4bf0 5a3f
00000250: 3d4c f5be 3d6a 1bbf ea32 04be 3fcf a13f
00000260: 1ea1 c53f 97c6 76bf db56 5c3f ff9a ae3f
00000270: a1fc cbbf 4f7a a2be 6e64 40bf b0f4 d3bc
00000280: a118 b73f 5618 0140 ca5a 913e c6c8 953e
00000290: e8bd 1c3e 7cf9 39be 9d00 6f3e 7d44 b1be
000002a0: c4a6 ba3e 6c12 003f 11ab 653f 4f74 553c
000002b0: 97c4 d13e 32b6 edbe cd44 09be a1f1 ef3e
000002c0: 812d 1ebf 8abd 5cbf 9c1c 1a3e d2e7 19bf
000002d0: af3d b0bf 2c0c 4ebe c465 adbe 7f21 d73f
000002e0: 9517 bdbe 007c 7dbf d381 113f 0099 d53c
000002f0: 4200 76be a138 48be 8768 6dbf c7e9 3bbf
00000300: 5f13 413d 4053 863d 2e54 133f 14d7 00be
00000310: 1aec 32bf 0a8e 763e 048a 1e3f 1342 5bbf
00000320: 1335 c43e 234f 6cbf ec42 c83d 7371 ad3e
00000330: d331 fb3e 9cbd fb3d 7143 ae3f 8ee1 f63e
00000340: 977d b8bf b905 e53f fe40 35bf ca2d 033f
00000350: 3f67 adbe 7b3d e4bf b3f1 7e3f c467 2f3e
00000360: 8e10 27bf 0c5d a23f af99 9d3f 9ca0 77bd
00000370: 80c5 a93e 8b14 913e 526a 163f 8f39 683f
00000380: 83f9 a2be 782e cc3e 5427 0abf 4f48 aabe
00000390: b6e3 de3d e60a 603d 5be2 dd3e 04e7 e3be
000003a0: a26f 55bf 962e 99be 7a07 203f 4f83 933f
000003b0: cc4f 0a3d 3d37 8e3f 50c6 363e 877d c73e
000003c0: 26d1 7bbf c529 f2bc 5871 bc3f 8d10 853e
000003d0: c904 c53d e516 16bf 5275 6abf bebd 183f
000003e0: 8b7d b33e af30 453e 9605 86bf ed6a b13f
000003f0: 603e 6abd 20c8 f6bd d07e 2bbf 3a81 fcbe

embedding.status_embed.weight f4 [100, 4]
0.7087207 0.40635753 -0.006329868 -1.1149114 -0.3841177 -0.038748518 0.07960569 -0.8349878
-0.3189358 1.1199485 0.25512934 -0.76933706 -1.936438 -2.4444299 -3.8127015 1.2125146
-0.82061195 -1.5303143 0.22871144 0.33421096 0.0026103435 -0.78773195 0.1723517 -0.5811571
1.0520203 -0.24596255 -0.7024089 1.4763747 -1.2704235 1.6521649 -0.5080273 0.08733093
-0.16967288 0.5475742 0.2627693 1.2220411 -0.2683789 -0.35225827 -0.9479007 -0.46008188
-0.2165843 0.04063175 0.3269188 0.371232 0.37550208 0.77560246 -0.457714 0.30203435
0.6330745 -0.68158424 1.1385843 0.64552146 -0.15389027 0.76537526 0.55401206 -0.10318138
-1.0821991 -1.8161952 -0.22346734 -0.10266514 -0.12072409 0.875692 -0.19271538 1.2850205
-0.41946003 -1.6601961 -1.2775902 -0.5105971 0.28138593 -0.30709022 0.38212153 -1.822535
-0.43192077 -0.4576438 0.975993 0.99269617 -0.90432334 -0.06025089 -0.746622 1.1326407
1.0853261 -1.0111008 -1.0125234 -0.96346295 -1.2188181 -1.9575126 1.0553513 -0.41382495
0.56758857 -0.65428376 0.027770732 1.031325 0.707721 -0.29136273 -1.1998736 -0.6161398
-0.54703295 -0.297448 0.73682153 -0.6327396 -1.8391632 0.24789329 1.4426684 0.8494965
-0.40184507 -0.56939137 0.12489493 -0.18231189 0.39227542 1.2851512 1.2247472 -0.32015833
1.4323214 -0.8291903 0.6806844 -0.64172554 0.79240775 -0.66779417 -0.43860236 0.24872106
0.86809456 -0.9325861 2.0019298 -0.07363682 -0.062424168 0.96827054 0.6685827 -0.73921317
0.03986523 -0.2526898 -1.728703 -0.34455076 0.32575604 -0.2980572 -0.1766514 -0.31316116
0.6694804 -0.8117905 -1.021895 0.54315704 0.27485642 0.45331284 0.70677876 0.5125465
0.18962686 0.1022113 0.09378421 0.36777297 0.2124197 -0.4535348 0.43785402 -0.6085654
-0.15305795 -1.0474118 -0.39952484 0.05883455 0.26158842 1.1198412 -0.26624036 -0.2026122
-0.34439877 -0.5606538 -0.12359159 -0.24665481 -0.48523092 -0.60677207 1.0047706 -0.71354866
-0.20211619 0.71656305 -0.35335752 -0.72460127 -0.5453399 1.6816652 -0.4994946 0.34781393
0.6554685 -1.3036371 0.90818894 -2.2254078 -0.29814893 -0.5480268 -1.2439858 -0.2761597
0.039514348 0.53465587 1.4117262 -1.475471 -1.0711178 0.4157598 0.3346825 -1.7475502
-0.10297442 -0.045046005 0.09673216 -0.42507666 0.0572947 -0.114840955 -0.42482847 -0.071864314
-0.7911398 0.31111938 1.6482083 -0.39646024 0.83289486 0.9614699 0.7555181 0.17454636
0.37908536 -0.39449492 0.23125671 0.059499834 0.49830216 -0.33264744 0.9031562 0.5393531
0.5134295 -0.6181747 -1.0597433 -0.33928075 0.109049544 0.85270184 0.42649633 1.2167782
-0.9421824 0.74070686 -1.214317 0.51663244 -0.04627234 0.05368248 -1.2796509 -0.5885321
0.94669425 0.32709977 -0.012603041 -0.082692 -1.0066136 0.50756824 -0.054099027 0.21114981
-0.26540485 -0.092017084 0.91247153 -0.9387528 0.22385395 -0.061265722 1.0154496 -1.1690392
-0.2256687 1.6205524 -0.08365682 0.46797484 0.60728455 0.6019277 -0.049739294 -0.0001770898
00000000: b86e 353f 180e d03e c86a cfbb 6bb5 8ebf
00000010: 13ab c4be c4b6 1ebd 4f08 a33d c3c1 55bf
00000020: 8e4b a3be 795a 8f3f 50a0 823e 46f3 44bf
00000030: 33dd f7bf 8a71 1cc0 4d03 74c0 ae33 9b3f
00000040: a013 52bf 57e1 c3bf 5533 6a3e b31d ab3e
00000050: 4c12 2b3b cda8 49bf f77c 303e b6c6 14bf
00000060: 9aa8 863f 9bdd 7bbe 12d1 33bf d9f9 bc3f
00000070: 3d9d a2bf 247a d33f 140e 02bf 8fda b23d
00000080: babe 2dbe d32d 0c3f b389 863e d86b 9c3f
00000090: f668 89be 325b b4be 9fa9 72bf da8f ebbe
000000a0: 46c8 5dbe 7a6d 263d e761 a73e 1f12 be3e
000000b0: cf41 c03e e28d 463f 7d59 eabe 3fa4 9a3e
000000c0: 2c11 223f 4e7c 2ebf 21bd 913f e540 253f
000000d0: 6995 1dbe a2ef 433f bcd3 0d3f c250 d3bd
000000e0: 8085 8abf 1679 e8bf 9fd4 64be 1a42 d2bd
000000f0: 313e f7bd 5a2d 603f 2e57 45be 8d7b a43f
00000100: 77c3 d6be 4e81 d4bf 1388 a3bf 7eb6 02bf
00000110: d111 903e ee3a 9dbe 6fa5 c33e d448 e9bf
00000120: b824 ddbe 4a50 eabe adda 793f 5621 7e3f
00000130: bc81 67bf a3c9 76bd 9f22 3fbf 5ffa 903f
00000140: f7eb 8a3f c06b 81bf 5e9a 81bf 82a5 76bf
00000150: 3b02 9cbf c68f fabf c015 873f dde0 d3be
00000160: 7c4d 113f 247f 27bf 727f e33c 7502 843f
00000170: 342d 353f 7f2d 95be 7595 99bf 57bb 1dbf
00000180: 5a0a 0cbf 1b4b 98be 56a0 3c3f 39fb 21bf
00000190: b369 ebbf bdd7 7d3e 5ca9 b83f 9a78 593f
000001a0: a3be cdbe a2c3 11bf eac8 ff3d f8af 3abe
000001b0: 53d8 c83e d67f a43f 84c4 9c3f cbeb a3be
000001c0: 4f56 b73f d145 54bf 5541 2e3f 2048 24bf
000001d0: 3cdb 4a3f 8ff4 2abf 7d90 e0be bcb0 7e3e
000001e0: 723b 5e3f f6bd 6ebf 9e1f 0040 e7ce 96bd
000001f0: 7cb0 7fbd 94e0 773f 3c28 2b3f 133d 3dbf
00000200: b949 233d 8f60 81be 2446 ddbf f568 b0be
00000210: 7fc9 a63e f49a 98be 1be4 34be a956 a0be
00000220: 1163 2b3f 81d1 4fbf 75cd 82bf 570c 0b3f
00000230: fbb9 8c3e 9f18 e83e 74ef 343f 3f36 033f
00000240: 8b2d 423e 2854 d13d f011 c03d bd4c bc3e
00000250: 8d84 593e b735 e8be 672e e03e f1ca 1bbf
00000260: 39bb 1cbe 9711 86bf 858e ccbe 7ffc 703d
00000270: ebee 853e f556 8f3f a850 88be 9379 4fbe
00000280: 0955 b0be 0287 0fbf 961d fdbd 1493 7cbe
00000290: 3070 f8be 6a55 1bbf 539c 803f 20ab 36bf
000002a0: 8cf7 4ebe ad70 373f 47eb b4be 787f 39bf
000002b0: 659b 0bbf ce40 d73f c2bd ffbe ab14 b23e
000002c0: c9cc 273f 95dd a6bf 127f 683f 156d 0ec0
000002d0: faa6 98be 7c4b 0cbf ed3a 9fbf ce64 8dbe
000002e0: ccd9 213d 35df 083f 72b3 b43f 3cdc bcbf
000002f0: 631a 89bf 78de d43e 815b ab3e baaf dfbf
00000300: 41e4 d2bd 2982 38bd 831b c63d a6a3 d9be
00000310: d9ad 6a3d bc31 ebbd 1e83 d9be 992d 93bd
00000320: 2388 4abf 0a4b 9f3e 7df8 d23f d6fc cabe
00000330: 9938 553f e422 763f a269 413f 48bc 323e
00000340: 7a17 c23e 3dfb c9be 8fce 6c3e 19b6 733d
00000350: 7621 ff3e c450 aabe 3f35 673f 0b13 0a3f
00000360: 1e70 033f b240 1ebf aba5 87bf 35b6 adbe
00000370: 5e55 df3d ab4a 5a3f ba5d da3e 63bf 9b3f
00000380: de32 71bf f79e 3d3f bd6e 9bbf 0642 043f
00000390: 1188 3dbd 29e2 5b3d 9acb a3bf 0aaa 16bf
000003a0: 8e5a 723f 9f79 a73e fc7c 4ebc 6c5a a9bd
000003b0: b7d8 80bf feef 013f f196 5dbd a837 583e
000003c0: 25e3 87be 7473 bcbd bc97 693f 1a52 70bf
000003d0: f839 653e c4f1 7abd 41fa 813f 14a3 95bf
000003e0: b215 67be 436e cf3f 4454 abbd 669a ef3e
000003f0: 0077 1b3f ef17 1a3f 6ebb 4bbd 2eb1 39b9

encoder.tree_lstm.cell.graph_linear.weight f4 [48, 24]
-0.10765153 -0.19634192 -0.096067384 0.0056209634 0.06657247 -0.2079838 0.24156931 0.09849001
0.06543353 0.1412468 0.4370098 -0.21795572 0.10094543 0.13177994 -0.07754417 0.14433423
0.11771281 0.0017196083 0.07570989 -0.054899115 -0.13695535 0.039692692 0.046813145 -0.1026258
-0.19071113 -0.005908991 0.20572726 0.46356347 -0.016755532 -0.30052754 0.38808766 0.010068406
0.025638377 0.5052303 0.95596117 -0.22648935 -0.035322215 0.0428217 0.017109731 0.12662232
-0.082475446 -0.00571832 0.029340917 -0.04170414 0.10704796 0.017175535 -0.1451257 -0.017011242
-0.05634767 -0.41274625 -0.28039876 -0.15769573 0.3160502 -0.25315836 -0.11513085 0.16065529
-0.38452992 -0.17209175 0.55431706 -0.5296531 0.03689862 0.13013116 -0.102710545 -0.10149719
0.1537034 0.12617114 -0.08760298 0.09448887 -0.020088596 -0.15481569 0.0117978 0.05073401
-0.27044114 -0.23612432 -0.5133462 -0.025496045 0.28008404 0.042448275 0.14220043 0.06622422
-0.17535649 -0.36470452 -0.35515213 -0.09488625 -0.11598238 0.10561811 0.10656418 -0.14260885
0.04996731 0.06387849 0.14916874 0.09084734 0.14435887 -0.0514084 0.10997814 0.12772514
-0.69703126 -0.048114598 0.29408658 0.26361862 0.021482445 -0.039943367 -0.03055533 0.06292991
-0.14152497 -0.14218734 -0.018029908 -0.13714676 0.0015211694 0.00043568606 0.050422862 0.14628156
0.046049543 -0.035679635 0.14102907 -0.059753474 -0.04559537 0.010720893 -0.11957698 0.017087134
-0.5800322 0.21512127 0.028817242 0.1813019 -0.048225023 -0.21320274 0.796425 0.19802077
-0.2515869 0.008928826 0.014444668 -0.11834605 0.14608982 0.119122274 -0.11480754 0.09713067
0.082016766 -0.00024085923 0.15211394 -0.06236636 -0.036542203 -0.07936244 0.022595199 0.041578084
-0.7379655 -0.20489389 -0.4970899 -0.03384173 0.103025615 -0.4013892 -0.19618878 0.14706713
-0.1778037 -0.48818612 -0.26823223 -0.127852 -0.09910546 0.11094628 0.021928348 -0.04497161
-0.103496596 0.036805075 -0.14976212 0.04135705 0.07763996 -0.13774139 -0.102800004 -0.11289001
-0.2526004 0.26330426 0.088369444 0.42025656 0.0131150065 -0.32005778 0.14124052 0.24521287
-0.023030942 -0.37233272 -0.013551692 0.008464727 0.113650136 -0.15582033 0.12930346 -0.13385646
0.14077342 -0.00650721 -0.13915728 0.04366739 -0.031962063 -0.14103863 -0.056928188 0.016190121
-0.21476158 -0.11309534 -0.021573056 -0.34754947 0.080210485 0.013075907 0.07340866 0.16220485
-0.047856133 0.10554928 0.24676435 -0.043158416 -0.1034188 -0.0651326 -0.028215457 -0.018089848
-0.08667955 0.007545282 -0.022039894 0.044908274 0.0070923897 -0.07841295 -0.054061648 -0.0018098314
-0.38475478 0.44239858 -0.09164911 0.29932025 -0.23102936 0.035441637 0.43802124 -0.112863965
0.010246098 -0.32224 -0.47290355 -0.0040337164 -0.059582304 -0.0580974 0.14429349 0.08988978
0.043517455 0.14743975 -0.14229886 0.025339032 0.10052377 0.10431006 -0.124969184 0.055883918
-0.43922958 0.07852604 -0.0061285347 -0.046145573 -0.21667063 -0.11156213 0.3047995 0.028381817
-0.1806435 -0.30115443 -0.19061683 -0.15713637 0.08847665 0.14222151 0.027771665 -0.116671905
00000000: 6878 dcbd db0d 49be fabe c4bd 0f30 b83b
00000010: 2657 883d b5f9 54be f25d 773e 21b5 c93d
00000020: 0402 863d 00a3 103e c0bf df3e c92f 5fbe
00000030: 7abc ce3d 52f1 063e 7acf 9ebd 5acc 133e
00000040: 6a13 f13d 7b64 e13a c90d 9b3d e5dd 60bd
00000050: 063e 0cbe ce94 223d 24bf 3f3d 7a2d d2bd
00000060: c749 43be 36a0 c1bb 2baa 523e 3158 ed3e
00000070: e642 89bc bfde 99be 6db3 c63e f5f5 243c
00000080: 9307 d23c c656 013f dfb9 743f d3ec 67be
00000090: 07ae 10bd cf65 2f3d b529 8c3c 48a9 013e
000000a0: e3e8 a8bd bf60 bbbb 5d5c f03c f6d1 2abd
000000b0: f63b db3d b5b3 8c3c d59b 14be 295b 8bbc
000000c0: d0cc 66bd 7a53 d3be 6d90 8fbe fd7a 21be
000000d0: 55d1 a13e f99d 81be b9c9 ebbd d282 243e
000000e0: 1be1 c4be d238 30be b9e7 0d3f 5897 07bf
000000f0: 0223 173d 1a41 053e e859 d2bd c2dd cfbd
00000100: 6d64 1d3e 0233 013e 3169 b3bd 6183 c13d
00000110: d790 a4bc 0188 1ebe 8f4b 413c 77ce 4f3d
00000120: 4377 8abe 93ca 71be a86a 03bf 15dd d0bc
00000130: 2d67 8f3e 3ede 2d3d fd9c 113e 90a0 873d
00000140: a790 33be 8dba babe 80d6 b5be b953 c2bd
00000150: 2c88 edbd 4f4e d83d 523e da3d 0e08 12be
00000160: 86aa 4c3d bad2 823d b1bf 183e 2c0e ba3d
00000170: d0d2 133e 9d91 52bd 383c e13d 61ca 023e
00000180: a470 32bf d013 45bd 8492 963e 05f9 863e
00000190: f4fb af3c a89b 23bd 2c4f fabc 66e1 803d
000001a0: eceb 10be 8f99 11be 75b3 93bc 3370 0cbe
000001b0: fa61 c73a cb6c e439 3488 4e3d d5ca 153e
000001c0: 729e 3c3d cf24 12bd ed69 103e 0fc0 74bd
000001d0: 36c2 3abd afa6 2f3c c7e4 f4bd 51fa 8b3c
000001e0: fe7c 14bf c048 5c3e 2312 ec3c 35a7 393e
000001f0: 9a87 45bd d251 5abe 82e2 4b3f f5c5 4a3e
00000200: 00d0 80be 364a 123c 54a9 6c3c 6a5f f2bd
00000210: 9298 153e 61f6 f33d 3720 ebbd 72ec c63d
00000220: 68f8 a73d 288f 7cb9 c2c3 1b3e de73 7fbd
00000230: 47ad 15bd c688 a2bd 9119 b93c c84d 2a3d
00000240: 4feb 3cbf b4cf 51be 9182 febe a09d 0abd
00000250: 18ff d23d e382 cdbe b6e5 48be c498 163e
00000260: 2c12 36be 88f3 f9be bc55 89be a2eb 02be
00000270: cef7 cabd ce37 e33d 14a3 b33c 2734 38bd
00000280: 06f6 d3bd ebc0 163d 3e5b 19be 0366 293d
00000290: b301 9f3d 140c 0dbe cf88 d2bd e132 e7bd
000002a0: d754 81be d1cf 863e 0afb b43d de2b d73e
000002b0: 53e0 563c 9dde a3be 5ba1 103e 1519 7b3e
000002c0: 63ab bcbc 65a2 bebe ea07 5ebc a3af 0a3c
000002d0: 67c1 e83d 5d8f 1fbe 2068 043e ab11 09be
000002e0: e826 103e 6f3a d5bb 3f7f 0ebe 94dc 323d
000002f0: a7ea 02bd 6e6c 10be 882d 69bd 25a1 843c
00000300: 76ea 5bbe 889e e7bd fab9 b0bc 01f2 b1be
00000310: 6545 a43d 543c 563c 4857 963d 0719 263e
00000320: cb04 44bd 392a d83d cbaf 7c3e e1c6 30bd
00000330: 3ccd d3bd 3e64 85bd 1a24 e7bc 2931 94bc
00000340: 0c85 b1bd 6a3e f73b 028d b4bc bdf1 373d
00000350: 4767 e83b f896 a0bd bf6f 5dbd dd37 edba
00000360: 94fe c4be 1182 e23e 87b2 bbbd 8140 993e
00000370: f692 6cbe 402b 113d 5244 e03e 3925 e7bd
00000380: 40df 273c a4fc a4be 6a20 f2be 442d 84bb
00000390: 930c 74bd 8af7 6dbd acc1 133e 2218 b83d
000003a0: 5c3f 323d 72fa 163e cbb6 11be cd93 cf3c
000003b0: 68df cd3d 83a0 d53d d8ef ffbd 89e6 643d
000003c0: b3e2 e0be 43d2 a03d e0d1 c8bb 2403 3dbd
000003d0: e8de 5dbe b07a e4bd ae0e 9c3e fc80 e83c
000003e0: 9cfa 38be ea30 9abe 0f31 43be 5be8 20be
000003f0: 3f33 b53d 84a2 113e 6781 e33c aef1 eebd

encoder.tree_lstm.cell.graph_linear.bias f4 [48]
0.11810098 0.20468985 0.33231223 0.04740675 0.13301729 0.19345386 0.20841546 0.17741334
0.041489717 -0.11131036 0.035454802 -0.032437284 0.21543103 0.25427496 0.5209653 0.18497239
-0.015517307 0.263477 0.29726648 -0.058485445 -0.13221352 -0.002176046 0.02242495 -0.006905509
-0.1474333 0.0067873932 -0.024293663 -0.021322867 -0.10563828 0.0006696636 -0.09505249 -0.059277307
0.014332591 0.09163821 0.113024674 -0.112780854 0.065937646 -0.08851442 -0.12140505 -0.006914682
-0.09007699 -0.13523722 -0.14674458 -0.1051044 0.12903284 0.08757372 -0.06215837 -0.10510005
00000000: edde f13d 379a 513e d424 aa3e 952d 423d
00000010: af35 083e c518 463e dd6a 553e d8ab 353e
00000020: 1ff1 293d b0f6 e3bd 0e39 113d f5dc 04bd
00000030: f499 5c3e 5430 823e fb5d 053f 6769 3d3e
00000040: 4e3c 7ebc 75e6 863e 5033 983e 6f8e 6fbd
00000050: fb62 07be fe9b 0ebb 87b4 b73c 9c47 e2bb
00000060: c1f8 16be c868 de3b 8103 c7bc 4bad aebc
00000070: e258 d8bd 5d8c 2f3a e1aa c2bd c3cc 72bd
00000080: 3ed3 6a3c d0ac bb3d 7b79 e73d a6f9 e6bd
00000090: 510a 873d 0c47 b5bd 36a3 f8bd 8f94 e2bb
000000a0: 497a b8bd a07b 0abe 3644 16be fa40 d7bd
000000b0: 2f21 043e da59 b33d c699 7ebd b23e d7bd

encoder.tree_lstm.linear_o.weight f4 [8, 12]
-0.042114876 0.03073596 -0.54899645 0.2622323 -0.21952456 0.21421564 -0.20975307 -0.43482605
-0.38500154 0.27670234 -0.2609886 0.19764163 0.26687962 -0.055407546 -0.5153439 0.13356014
-0.19134742 0.3323532 -0.9795745 0.27585837 0.026139868 -0.49967805 -0.026345586 0.049157828
0.31634888 0.37039152 -0.33714458 0.113540724 0.31658813 -0.42953622 -0.8205826 0.038323198
-0.3914001 0.3571245 -0.10936735 0.27502608 -0.015705507 0.062959604 0.38999638 -0.14722829
-0.2408599 0.02517249 0.9190254 -0.5841524 -0.0796486 0.01083466 0.044418875 0.20874421
-0.50128144 -0.6831192 0.98712677 -0.37717006 -1.4033115 -0.16730076 1.4859202 -1.2107643
0.26962382 0.52551013 -0.09760147 0.3522477 0.039961725 -0.2520015 2.0948918 0.1291174
-1.7185408 0.12232938 1.9310831 -1.194951 -0.20839657 0.47607216 -0.35125083 0.36169583
-0.26138404 -0.26768935 2.007189 -0.3408162 -1.8106858 0.31235436 1.6910354 -1.262436
-0.29411578 0.5907812 -0.05170738 0.31018284 -0.4848128 -0.5745245 1.3593366 -0.22482903
-1.8215902 0.09100236 1.6948872 -1.2235525 -0.15705293 0.6396243 -0.3295456 0.44649962
00000000: a680 2cbd fbc9 fb3c 088b 0cbf 5043 863e
00000010: 0ccb 60be 585b 5b3e 82c9 56be 85a1 debe
00000020: ec1e c5be eeab 8d3e 4ca0 85be 9162 4a3e
00000030: 72a4 883e 06f3 62bd 94ed 03bf fdc3 083e
00000040: 94f0 43be 332a aa3e 65c5 7abf 4f3d 8d3e
00000050: 4723 d63c cdd5 ffbe b3d2 d7bc b859 493d
00000060: 7bf8 a13e f5a3 bd3e 379e acbe 0a88 e83d
00000070: d717 a23e 2cec dbbe b411 52bf c9f8 1c3d
00000080: 9865 c8be 06d9 b63e fdfb dfbd 38d0 8c3e
00000090: d6a8 80bc f7f0 803d 9bad c73e 03c3 16be
000000a0: faa3 76be 8a36 ce3c 4045 6b3f 038b 15bf
000000b0: ce1e a3bd dc83 313c 91f0 353d 0bc1 553e
000000c0: fb53 00bf e6e0 2ebf 57b4 7c3f 6f1c c1be
000000d0: b69f b3bf e450 2bbe a232 be3f 53fa 9abf
000000e0: 220c 8a3e d587 063f 48e3 c7bd cf59 b43e
000000f0: e8ae 233d 5706 81be b512 0640 5a37 043e
00000100: 25f9 dbbf d387 fa3d bb2d f73f 28f4 98bf
00000110: e965 55be bbbf f33e 26d7 b3be 3230 b93e
00000120: 21d4 85be 940e 89be c975 0040 767f aebe
00000130: 8dc4 e7bf e9ec 9f3e d973 d83f 8197 a1bf
00000140: 5896 96be 703d 173f 1ecb 53bd 49d0 9e3e
00000150: 6239 f8be 0a14 13bf befe ad3f 9539 66be
00000160: de29 e9bf 725f ba3d 10f2 d83f 5e9d 9cbf
00000170: 7cd2 20be 6bbe 233f 33ba a8be 999b e43e

encoder.tree_lstm.linear_o.bias f4 [8]
0.10407053 0.047005344 0.088585176 0.010176772 -0.9092536 -1.1852986 -0.85656536 -1.0514361
00000000: ee22 d53d ad88 403d 256c b53d 7abc 263c
00000010: d8c4 68bf ddb7 97bf de47 5bbf 7595 86bf

decoder.mlp.0.weight f4 [4, 4]
-0.34043223 -0.44191957 -0.4096523 0.38496765 0.9858823 0.006816462 -0.9854127 1.1683248
-0.56499654 1.9023376 -0.5058373 -1.7547065 -0.20301569 0.93306935 0.07337636 -0.8415367
00000000: 224d aebe 4843 e2be f2bd d1be 7b1a c53e
00000010: c862 7c3f a15c df3b 0244 7cbf ab8b 953f
00000020: 9da3 10bf cc7f f33f 8e7e 01bf 399a e0bf
00000030: 58e3 4fbe a2dd 6e3f 5846 963d f36e 57bf

decoder.mlp.0.bias f4 [4]
3.1176445 -0.035804495 0.59131205 1.0213927
00000000: 7d87 4740 bca7 12bd 3a60 173f ffbc 823f

decoder.mlp.2.weight f4 [4, 4]
0.3215128 1.593492 0.55311465 -0.6858585 2.2748275 -0.015897084 0.44138768 -1.0694902
1.3048506 -0.07079357 3.1439114 1.8376176 0.30969724 1.162916 0.045077123 -1.175661
00000000: 539d a43e 8cf7 cb3f ec98 0d3f 6c94 2fbf
00000010: c696 1140 9a3a 82bc 91fd e13e 0ee5 88bf
00000020: 5805 a73f 38fc 90bd d835 4940 0e37 eb3f
00000030: a390 9e3e 6eda 943f caa2 383d 0f7c 96bf

decoder.mlp.2.bias f4 [4]
-0.525785 0.922412 1.6449729 0.937847
00000000: d999 06bf 3123 6c3f 798e d23f be16 703f

decoder.mlp.4.weight f4 [800, 4]
2.4807243 0.92809993 1.9116441 1.7841859 0.38941145 0.5870193 -0.8170204 0.42907262
2.3878691 1.0276536 0.752305 0.24653748 -0.38463995 1.1384399 0.072262175 0.10225215
-0.46700826 -0.011236444 -1.3186547 -0.26092 -0.45834285 -0.20456925 -1.6800508 0.02865773
0.3703568 0.34747007 1.7434121 0.5690503 0.29117697 0.63261884 1.24238 0.03446657
-0.3244169 0.5545977 0.40530214 0.4983503 -1.0928901 -0.6723252 0.74144244 -1.6977103
-2.090448 -0.6864223 0.26761124 -0.8657572 1.4277648 0.97669137 1.3761711 -0.07965076
-0.4182883 0.11217952 0.044314306 -0.9318083 -0.37633643 0.22499937 -0.12182127 -1.0373871
0.3954376 -0.15447646 0.39985698 1.2702216 -0.056039117 0.6838639 0.8266163 -0.09017447
-0.5994371 -1.7462126 -1.6630206 -1.3741679 -0.7485217 -1.083228 -0.76145345 -0.36583617
1.3023595 0.122763924 0.2417624 -0.02983665 1.0078182 1.2434362 -0.9164781 1.3274189
-0.4800934 0.11710515 -1.6281787 -0.15125862 -0.053168043 -0.5782654 -1.246975 -0.38615718
0.50905037 0.6907394 1.3496616 0.21279645 0.62508607 0.3978303 0.91694576 0.70400393
-0.44397026 0.42857406 -0.4060754 0.120103315 -0.39128426 -0.13098074 -0.30676058 -0.68452185
1.6189444 0.44204113 0.008080297 0.8412282 0.6438562 0.5426555 -0.41904908 0.26817557
-0.13441789 -0.48889932 -1.1994643 -0.3700525 -0.53596264 -0.41875497 -1.8271633 -0.559552
0.25267735 -0.05975013 1.2712562 0.60717994 0.31374642 0.118101746 0.9847195 0.6253177
0.871534 -0.49186802 0.49894825 0.5244148 -1.0252018 -0.13173884 0.8948381 -0.9394664
2.7272449 1.2912384 -0.92600834 1.5689858 -0.060539346 1.6980575 -0.51143634 0.2869769
-0.53764486 -0.1490835 -1.2592554 0.055051137 -0.2624307 -0.50567853 -1.4587847 -0.3445106
0.53307736 0.07266798 1.7638708 -0.0024953245 0.68519276 0.42639434 0.8595539 0.45647985
0.012837228 0.008028282 -0.15406716 -0.44051877 -0.93112737 -0.65891576 1.4487355 -0.9291387
1.5055633 1.4798394 -0.9593202 1.1747799 0.9800824 0.906488 -0.33042812 0.23293638
-0.18771283 0.10389197 -1.0012491 -0.4497056 -0.3511904 -0.539425 -1.6699209 -0.7766576
0.4236654 0.17261101 1.9463098 0.4425387 0.06990271 0.451445 1.2387968 -0.045215104
0.4683474 -0.16716571 0.5050723 -0.633779 -0.8864703 0.14492393 -0.36980486 -0.31195617
1.2268492 1.4917938 -0.8949418 1.1109962 0.9083204 0.58242035 -0.70715684 0.7574196
0.09625551 -0.04610357 -1.3206618 -0.4308076 0.0529379 -0.18187463 -1.7230085 -0.40166128
0.7114816 0.72062016 1.6587454 0.7733508 0.04270673 0.015170357 0.8893866 0.41644382
-0.55482095 -0.48504207 -0.86907476 -0.25297147 -0.82907057 -0.44090933 0.041269492 -0.27900544
0.47843936 0.66073 -0.3915818 0.3607347 0.7265203 0.06640396 -0.79454726 0.21777074
-0.26032314 -0.040744215 -1.4663308 0.06541741 -0.48165724 -0.37362185 -1.8465838 -0.47174034
0.079663366 -0.14018412 1.6887999 0.22746721 0.6237557 0.48983788 0.98606265 0.3864901
00000000: 30c4 1e40 f597 6d3f c1b0 f43f 3460 e43f
00000010: f060 c73e e646 163f 4028 51bf 68af db3e
00000020: d9d2 1840 278a 833f 0f97 403f 5274 7c3e
00000030: 87ef c4be 66b8 913f 31fe 933d 9369 d13d
00000040: b51b efbe 1019 38bc adc9 a8bf 4e97 85be
00000050: eaab eabe 9a7a 51be e80b d7bf 9ec3 ea3c
00000060: 689f bd3e 99e7 b13e 2128 df3f 48ad 113f
00000070: 2615 953e 4ff3 213f 4f06 9f3f d12c 0d3d
00000080: f919 a6be 1dfa 0d3f c383 cf3e c527 ff3e
00000090: d3e3 8bbf 811d 2cbf 2ccf 3d3f 924e d9bf
000000a0: e6c9 05c0 5fb9 2fbf 5704 893e 44a2 5dbf
000000b0: ffc0 b63f 7208 7a3f 6026 b03f f01f a3bd
000000c0: e229 d6be 60be e53d eb82 353d fd8a 6ebf
000000d0: 2baf c0be 3c66 663e 6e7d f9bd 1ac9 84bf
000000e0: cc76 ca3e 142f 1ebe 0eba cc3e 9f96 a23f
000000f0: 4689 65bd b411 2f3f 209d 533f 64ad b8bd
00000100: b674 19bf e583 dfbf dcdd d4bf bce4 afbf
00000110: 1e9f 3fbf 37a7 8abf 9dee 42bf e14e bbbe
00000120: b7b3 a63f a76b fb3d 9090 773e fd6b f4bc
00000130: 3000 813f eb28 9f3f 4f9e 6abf dde8 a93f
00000140: cdce f5be d3d4 ef3d 2968 d0bf 8ae3 1abe
00000150: bcc6 59bd 3409 14bf e09c 9fbf 65b6 c5be
00000160: 2051 023f 4cd4 303f b6c1 ac3f 50e7 593e
00000170: a405 203f 6ab0 cb3e f5bc 6a3f 9a39 343f
00000180: 1250 e3be 0f6e db3e 1de9 cfbe baf8 f53d
00000190: 6956 c8be d11f 06be b90f 9dbe d33c 2fbf
000001a0: 9239 cf3f 3753 e23e 3963 043c bb5a 573f
000001b0: c3d3 243f 79eb 0a3f 9a8d d6be 4f4e 893e
000001c0: d8a4 09be 0351 fabe 0c88 99bf 8577 bdbe
000001d0: d934 09bf 0d67 d6be 7de0 e9bf cd3e 0fbf
000001e0: ed5e 813e 8dbc 74bd 86b8 a23f 2570 1b3f
000001f0: 5fa3 a03e 54df f13d 9416 7c3f d214 203f
00000200: da1c 5f3f 20d6 fbbe 2576 ff3e 0c40 063f
00000210: d039 83bf 8ce6 06be 1c14 653f df80 70bf
00000220: 2e8b 2e40 4d47 a53f e20e 6dbf 87d4 c83f
00000230: 1bf8 77bd f359 d93f 7eed 02bf a3ee 923e
00000240: 18a3 09bf 58a9 18be 482f a1bf 4d7d 613d
00000250: 515d 86be 2674 01bf 75b9 babf b263 b0be
00000260: c277 083f f3d2 943d 85c6 e13f 9988 23bb
00000270: cb68 2f3f 5c50 da3e b90b 5c3f bab7 e93e
00000280: 3d53 523c 0e89 033c c8c3 1dbe ad8b e1be
00000290: 5d5e 6ebf b4ae 28bf 2a70 b93f 09dc 6dbf
000002a0: 4cb6 c03f 616b bd3f 0296 75bf 305f 963f
000002b0: aee6 7a3f 990f 683f e02d a9be e086 6e3e
000002c0: cb37 40be 50c5 d43d ee28 80bf d03f e6be
000002d0: 3acf b3be c217 0abf f8bf d5bf 08d3 46bf
000002e0: acea d83e f1c0 303e ae20 f93f 6f94 e23e
000002f0: 2729 8f3d cd23 e73e e590 9e3f 7933 39bd
00000300: 3bcb ef3e 7d2d 2bbe 6b4c 013f 573f 22bf
00000310: b8ef 62bf f066 143e 1057 bdbe b8b8 9fbe
00000320: 6509 9d3f 19f3 be3f e81a 65bf 2035 8e3f
00000330: b087 683f 8019 153f 3b08 35bf 40e6 413f
00000340: 9c21 c53d 19d7 3cbd 720b a9bf d092 dcbe
00000350: 69d5 583d 583d 3abe 8b8b dcbf 8ca6 cdbe
00000360: a823 363f 907a 383f c551 d43f 51fa 453f
00000370: 41ed 2e3d 178d 783c d7ae 633f 2038 d53e
00000380: bf08 0ebf 6f57 f8be af7b 5ebf 7a85 81be
00000390: f83d 54bf debe e1be 330a 293d cdd9 8ebe
000003a0: 01f6 f43e 9a25 293f 697d c8be 38b2 b83e
000003b0: 3cfd 393f cdfe 873d 7367 4bbf 4bff 5e3e
000003c0: 1349 85be 68e3 26bd bab0 bbbf 90f9 853d
000003d0: c79b f6be 5d4b bfbe dc5c ecbf f387 f1be
000003e0: 8c26 a33d 6d8c 0fbe 982a d83f 2aed 683e
000003f0: 74ae 1f3f 08cc fa3e 9a6e 7c3f 08e2 c53e

decoder.mlp.4.bias f4 [800]
-0.26516116 -1.7184119 -3.7356079 0.29906717 -0.11753446 -0.19349502 0.76981246 0.3148435
0.6958862 1.1490992 3.251264 -4.442191 -0.50194275 -0.5035242 0.6027528 0.63615555
-1.7632641 2.5838695 -1.8855255 -1.9674957 -0.66830397 -0.13341366 0.24122755 0.10646086
-0.415405 1.1031684 -2.5430372 -0.5295464 -0.07272676 -0.19174631 0.6517358 0.15192784
-4.3896127 -1.7468828 -2.417977 -2.1658773 -0.67567474 -0.8141184 0.44771367 0.024141932
-1.4910469 -0.3337246 -1.5112561 -5.6029186 -0.045726884 -0.8933877 0.16166566 0.34775957
-4.9498215 2.6081421 -1.9809066 -1.201 -0.02041208 -0.4795676 0.6633381 0.1426844
-1.438333 0.9012954 1.3176166 -2.052682 -0.6253094 -0.6658852 0.3658159 0.37498036
-3.6007373 2.1510308 0.14156911 -0.49586627 -0.6087331 -0.5199632 0.6652636 -0.02682873
1.0887948 -2.9501948 0.59708357 0.5968273 -0.00790338 -0.14696884 0.3672618 0.1722323
-1.3673154 1.0908337 0.90077275 -3.528697 -0.36757556 -0.55480707 0.63899386 -0.064149186
2.4820287 2.4305286 -1.4421456 -0.110460594 -0.5336709 -0.7006122 0.64264303 0.21060795
1.0764123 0.010701479 -2.0621312 -3.209525 -0.6646579 -0.42474344 0.63441056 0.020932263
-1.6570967 4.321267 -1.284046 0.9865879 -0.42350343 -0.12926358 0.18868916 0.3594235
0.7946574 4.171161 -0.17870276 0.4580244 -0.50778997 -0.49284112 0.24339308 0.23442368
0.91653687 2.3223383 0.09048179 -4.199217 -0.29288194 -0.66487 0.69766796 0.59931964
1.5976413 2.8488264 -2.9169383 -2.3881853 -0.15486413 -0.13501325 0.7835428 0.21611229
-2.1698937 0.43244162 0.36979097 0.22037378 -0.022148538 -0.24606863 0.81430674 0.17373495
-1.8932462 0.012073282 0.6575106 0.8031494 -0.27920258 -0.63710964 0.2218042 -0.02587449
-1.8786956 2.1674762 -0.77215695 2.082472 -0.11796748 -0.35276216 0.41727036 0.046101145
0.55464363 1.4640315 2.2627902 -2.427337 -0.24960737 -0.7134892 0.9314681 -0.032446086
1.3069073 1.2355863 2.088347 -1.0244399 -0.60149693 -0.06077502 0.4921256 0.20331958
-3.9827163 2.9247224 1.3837676 -3.3226075 -0.07644796 -0.5692865 0.43209872 0.22893208
-4.5491786 3.4806924 0.8824873 5.4467816 -0.6209034 -0.28766003 0.8097182 0.27448994
3.3407037 -0.5232718 2.1361098 1.5104276 -0.42473987 -0.4380768 0.72630775 0.48410404
0.32036775 1.6721355 2.4167755 -3.4528377 -0.43676776 -0.82332546 0.5356807 0.113683455
-0.7690427 1.0389867 0.74326444 0.2548719 -0.8468037 -0.46586344 0.40275759 0.83797383
-0.95555013 -0.010294299 0.01880303 2.172966 -0.5707603 -1.0002288 0.47233292 0.7425777
0.13499707 0.28974125 0.6188412 -0.23572199 -0.9704928 -0.43070653 0.6398063 0.24998684
0.38523796 0.57887805 0.87464684 1.2478971 -0.20678705 -1.0664707 1.0533631 0.87334985
0.50675195 1.6016531 1.0254848 1.3836238 -0.40240029 -1.2688565 0.7374481 0.1640968
0.31059834 0.93402845 0.5656937 0.9982531 -0.61821413 -1.049072 0.38910988 0.06609427
00000000: 34c3 87be ecf4 dbbf 3314 6fc0 551f 993e
00000010: e8b5 f0bd 8f23 46be 6e12 453f 2b33 a13e
00000020: 9925 323f af15 933f b614 5040 6e26 8ec0
00000030: 527f 00bf f6e6 00bf 024e 1a3f 17db 223f
00000040: a3b2 e1bf 1e5e 2540 e658 f1bf e6d6 fbbf
00000050: f815 2bbf 979d 08be 5b04 773e 2708 da3d
00000060: f7af d4be 9f34 8d3f 1fc1 22c0 5a90 07bf
00000070: c4f1 94bd 2559 44be 28d8 263f f992 1b3e
00000080: b577 8cc0 db99 dfbf 23c0 1ac0 bc9d 0ac0
00000090: 05f9 2cbf 106a 50bf ba3a e53e 4dc5 c53c
000000a0: a0da bebf f3dd aabe d770 c1bf 1c4b b3c0
000000b0: 1d4c 3bbd 0eb5 64bf af8b 253e 8b0d b23e
000000c0: f064 9ec0 cdeb 2640 598e fdbf 5eba 99bf
000000d0: 3c37 a7bc e289 f5be 87d0 293f dc1b 123e
000000e0: 4c1b b8bf 4cbb 663f a9a7 a83f 245f 03c0
000000f0: 4714 20bf 7477 2abf 394c bb3e 6dfd bf3e
00000100: 7b72 66c0 7daa 0940 7ef7 103e 2fe2 fdbe
00000110: efd5 1bbf 4f1c 05bf b74e 2a3f edc7 dbbc
00000120: a15d 8b3f fecf 3cc0 78da 183f adc9 183f
00000130: 2e7d 01bc 007f 16be bd09 bc3e aa5d 303e
00000140: 3104 afbf 70a0 8b3f 0b99 663f 2cd6 61c0
00000150: dd32 bcbe d607 0ebf 1a95 233f a660 83bd
00000160: 8fd9 1e40 c88d 1b40 3a98 b8bf 2a39 e2bd
00000170: a89e 08bf 525b 33bf 4184 243f 9ca9 573e
00000180: e1c7 893f 4255 2f3c f5f9 03c0 dc68 4dc0
00000190: 0527 2abf f977 d9be bb68 223f 237a ab3c
000001a0: bf1b d4bf d247 8a40 9f5b a4bf 0691 7c3f
000001b0: 71d5 d8be ac5d 04be bb37 413e 5b06 b83e
000001c0: ab6e 4b3f 277a 8540 dbfd 36be 2d82 ea3e
000001d0: 86fe 01bf ac55 fcbe 093c 793e c30c 703e
000001e0: 29a2 6a3f 31a1 1440 844e b93d fc5f 86c0
000001f0: 9ff4 95be ec34 2abf 5e9a 323f 036d 193f
00000200: 837f cc3f 2c53 3640 1eaf 3ac0 07d8 18c0
00000210: b494 1ebe ea40 0abe 4396 483f 8a4c 5d3e
00000220: 8adf 0ac0 fd68 dd3e 3e55 bd3e aaa9 613e
00000230: da70 b5bc 6af9 7bbe 6876 503f 93e7 313e
00000240: e455 f2bf 04cf 453c 9d52 283f 339b 4d3f
00000250: a4f3 8ebe 9e19 23bf a420 633e bdf6 d3bc
00000260: 1979 f0bf eeb7 0a40 14ac 45bf 3947 0540
00000270: ef98 f1bd 3e9d b4be 76a4 d53e 8ed4 3c3d
00000280: 20fd 0d3f 6265 bb3f 8ed1 1040 7d59 1bc0
00000290: 1399 7fbe 3aa7 36bf b274 6e3f 30e6 04bd
000002a0: bd48 a73f b127 9e3f 7aa7 0540 d920 83bf
000002b0: b4fb 19bf 3aef 78bd e3f7 fb3e 0233 503e
000002c0: d3e4 7ec0 a72e 3b40 4c1f b13f 9aa5 54c0
000002d0: c090 9cbd c3bc 11bf 0b3c dd3e 2c6d 6a3e
000002e0: df92 91c0 aac3 5e40 b0ea 613f 094c ae40
000002f0: 86f3 1ebf 2d48 93be b149 4f3f f289 8c3e
00000300: 17ce 5540 24f5 05bf 06b6 0840 b155 c13f
00000310: 8177 d9be 9a4b e0be 4eef 393f 7cdc f73e
00000320: 3e07 a43e 8908 d63f 73ac 1a40 4bfb 5cc0
00000330: 06a0 dfbe 75c5 52bf 5f22 093f dfd2 e83d
00000340: fbdf 44bf 84fd 843f 9446 3e3f 927e 823e
00000350: 21c8 58bf a785 eebe 3e36 ce3e 7485 563f
00000360: ef9e 74bf 6ba9 28bc d008 9a3c e011 0b40
00000370: 591d 12bf 7f07 80bf 9fd5 f13e 9219 3e3f
00000380: ac3c 0a3e f758 943e 606c 1e3f 1b61 71be
00000390: 3772 78bf 9185 dcbe 58ca 233f 8dfc 7f3e
000003a0: e93d c53e 5a31 143f dbe8 5f3f 18bb 9f3f
000003b0: fcbf 53be 1d82 88bf 9ad4 863f db93 5f3f
000003c0: 7fba 013f f802 cd3f 1643 833f 961a b13f
000003d0: 6907 cebe e469 a2bf 66c9 3c3f fe08 283e
000003e0: bf06 9f3e 7d1c 6f3f 4dd1 103f 848d 7f3f
000003f0: 4843 1ebf fe47 86bf 6939 c73e 6f5c 873d

decoder.op_decoder.weight f4 [101, 4]
0.07766197 -0.5403267 0.18627942 0.2947601 0.07959611 -0.5409875 0.18609215 0.2922789
0.787727 -0.40843242 0.8046492 -1.7514669 -1.0022305 0.78156203 -1.1592699 0.22834334
0.9718594 -0.7799924 -0.36556354 -1.1551754 0.08210755 -0.5421413 0.18493778 0.28716594
0.08016077 -0.54131854 0.18559654 0.29018977 0.18189135 -2.0376992 1.0579997 -0.5283838
0.61360395 0.3145359 -0.020848025 0.20678268 -0.9900476 0.8318485 1.0572362 0.06224072
0.07628538 -0.53897053 0.18803506 0.29473504 -0.7808486 0.15715247 1.0163939 0.2853059
-0.56706107 -0.08472525 1.2786083 0.4455742 -0.24363412 -1.3506707 -0.0010234428 0.7540224
0.915881 -1.5319244 -0.21285106 -0.27088448 -0.7518267 0.36772043 0.4581843 0.4022936
-0.4885314 0.2804778 1.2662213 0.17766343 -0.22674674 0.50483465 0.7733588 0.04708236
0.17092913 0.51193005 0.43430996 0.13176468 -0.0759175 0.6174473 0.16940495 -0.13545649
0.5836875 0.32634 0.06422599 0.2372046 0.07707567 -0.53998464 0.18686007 0.29448155
0.6862635 1.1372095 0.6872929 0.14708689 0.6281206 0.84424794 0.49615392 -0.8674139
0.075503215 -0.5396455 0.18620895 0.29815868 0.56321216 0.30308774 -0.14998315 0.29636252
0.65408665 -0.9880908 0.47859707 0.3718511 0.07662096 -0.53895295 0.1881908 0.29406345
0.875612 -0.64903724 1.0574559 -0.19378747 1.2309624 -0.15839295 0.09831009 -0.44754905
0.8357536 -0.35543355 0.5279477 0.5097735 0.08168255 -0.5419112 0.18512507 0.2877151
0.69616187 -0.88551563 -0.19717224 0.86695963 0.5631781 0.28105518 -0.9243895 1.0064349
-1.002148 -0.6439687 -0.54250014 1.678972 0.5631477 -1.5795408 -0.20178455 0.22493753
-0.16136901 -1.9532443 1.3427802 1.3590115 -0.7190722 -0.7369338 1.7737558 1.0713754
-0.9224328 0.12694637 2.4571145 0.117178634 -0.19538079 -0.92246914 0.49383512 -0.04493989
-1.1711434 0.57542735 1.5340686 0.19652747 0.011188993 0.58065593 1.5417112 0.13290471
0.08175687 -0.54184705 0.18539898 0.2877843 0.07906499 -0.5404617 0.18669185 0.2911692
0.07545017 -0.5391418 0.18722533 0.29702303 0.08109154 -0.53877205 0.19075786 0.28417924
0.076038815 -0.5393 0.18733704 0.296057 0.07733513 -0.53932416 0.18808842 0.2945171
0.079530984 -0.5406143 0.18666376 0.29009628 0.08088306 -0.541675 0.1852772 0.28900427
0.07623566 -0.53957105 0.18682347 0.2959507 0.077137925 -0.5391172 0.18800884 0.29320997
0.07865045 -0.5406308 0.18630369 0.29191628 0.3267327 0.3989716 -0.18516451 -0.32979622
-0.46656647 0.09373614 -0.9176855 -0.67801154 0.081291236 -0.5417477 0.18550454 0.28811318
0.32113883 0.29964435 -0.39910847 -0.09510989 0.080162644 -0.5407123 0.18675202 0.28939492
0.90439236 1.010607 -0.34564912 -0.15623696 -0.23439242 0.4086154 -0.7641469 -1.4639285
0.07669315 -0.53954893 0.18730298 0.2951067 1.5764436 -0.10984116 -1.0404017 -0.119207546
0.5354067 0.60251474 -0.2664587 -1.3881449 0.079093166 -0.54084134 0.18590651 0.29161158
00000000: 3d0d 9f3d da52 0abf 08c0 3e3e ccea 963e
00000010: 4903 a33d 287e 0abf f18e 3e3e 94a5 953e
00000020: 7aa8 493f 0e1e d1be 7dfd 4d3f 1130 e0bf
00000030: 1749 80bf 7314 483f f562 94bf d6d2 693e
00000040: c7cb 783f 95ad 47bf 252b bbbe cadc 93bf
00000050: 0128 a83d c6c9 0abf 5460 3d3e 6a07 933e
00000060: 542b a43d da93 0abf 050d 3e3e c193 943e
00000070: ba41 3a3e aa69 02c0 896c 873f 2944 07bf
00000080: 2615 1d3f d90a a13e 7ac9 aabc d7be 533e
00000090: c273 7dbf 06f4 543f 8453 873f 20f0 7e3d
000000a0: 823b 9c3d f9f9 09bf 438c 403e 83e7 963e
000000b0: b2e5 47bf 94ec 203e 3219 823f 9d13 923e
000000c0: ea2a 11bf 6f84 adbd 70a9 a33f 4d22 e43e
000000d0: 397b 79be c7e2 acbf 0b25 86ba 9d07 413f
000000e0: 2d77 6a3f 1916 c4bf a1f5 59be 5fb1 8abe
000000f0: b777 40bf da45 bc3e 2297 ea3e 6df9 cd3e
00000100: ca20 fabe c99a 8f3e 8a13 a23f 67ed 353e
00000110: 4c30 68be d83c 013f d8fa 453f 6fd9 403d
00000120: 0c08 2f3e d90d 033f e05d de3e 52ed 063e
00000130: a27a 9bbd 0711 1e3f 7e78 2d3e 1bb5 0abe
00000140: 8b6c 153f 0916 a73e ea88 833d c3e5 723e
00000150: d9d9 9d3d 6f3c 0abf 3f58 3f3e 49c6 963e
00000160: f7ae 2f3f 1590 913f 6df2 2f3f f29d 163e
00000170: 83cc 203f a220 583f e307 fe3e d60e 5ebf
00000180: 6ea1 9a3d 3526 0abf 8fad 3e3e 41a8 983e
00000190: ac2e 103f 512e 9b3e 2f95 19be d4bc 973e
000001a0: 3972 273f 85f3 7cbf ad0a f53e 4463 be3e
000001b0: 73eb 9c3d d2f8 09bf 17b5 403e 7c8f 963e
000001c0: 1c28 603f 4e27 26bf b75a 873f 3970 46be
000001d0: 2d90 9d3f c331 22be cd56 c93d 2625 e5be
000001e0: f3f3 553f 63fb b5be 9527 073f 8480 023f
000001f0: 2e49 a73d b1ba 0abf 6d91 3d3e 654f 933e
00000200: aa37 323f 27b1 62bf 85e7 49be 11f1 5d3f
00000210: 712c 103f 77e6 8f3e caa4 6cbf dcd2 803f
00000220: 6346 80bf 22db 24bf 4ae1 0abf 8ee8 d63f
00000230: 732a 103f 652e cabf 9ca0 4ebe 0656 663e
00000240: eb3d 25be e903 fabf 39e0 ab3f 17f4 ad3f
00000250: 1e15 38bf b2a7 3cbf 6e0a e33f d422 893f
00000260: 8e24 6cbf 3bfe 013e 5d41 1d40 5afb ef3d
00000270: e711 48be f026 6cbf f5d7 fc3e e412 38bd
00000280: 07e8 95bf 354f 133f 5c5c c43f 7f3e 493e
00000290: 0a52 373c dea5 143f cb56 c53f 2c18 083e
000002a0: 2570 a73d 7db6 0abf 3bd9 3d3e 7758 933e
000002b0: d3ec a13d b35b 0abf 262c 3f3e 2114 953e
000002c0: 9e85 9a3d 3205 0abf ffb7 3f3e 6713 983e
000002d0: 5213 a63d f7ec 09bf 0756 433e f17f 913e
000002e0: 3dba 9b3d 910f 0abf 48d5 3f3e c894 973e
000002f0: e161 9e3d 2611 0abf 409a 403e f2ca 963e
00000300: 24e1 a23d b365 0abf c924 3f3e 8087 943e
00000310: 05a6 a53d 36ab 0abf 4eb9 3d3e 5ef8 933e
00000320: 7121 9c3d 5421 0abf a74e 3f3e da86 973e
00000330: 7dfa 9d3d 9603 0abf 6485 403e 9e1f 963e
00000340: 7d13 a13d c866 0abf 65c6 3e3e 0d76 953e
00000350: 8249 a73e 0146 cc3e c49b 3dbe 0ddb a8be
00000360: cde1 eebe bcf8 bf3d 70ed 6abf 2a92 2dbf
00000370: 057c a63d faaf 0abf e7f4 3d3e 9283 933e
00000380: 4f6c a43e fc6a 993e f257 ccbe f9c8 c2bd
00000390: 502c a43d 1f6c 0abf ec3b 3f3e 922b 943e
000003a0: 4286 673f 925b 813f ecf8 b0be 95fc 1fbe
000003b0: 9104 70be 0a36 d13e 229f 43bf 0262 bbbf
000003c0: 4c11 9d3d e11f 0abf 5acc 3f3e 3a18 973e
000003d0: e7c8 c93f 67f4 e0bd e22b 85bf 1623 f4bd
000003e0: 6a10 093f 683e 1a3f 466d 88be bbae b1bf
000003f0: 99fb a13d 9474 0abf 475e 3e3e 1d4e 953e

decoder.op_decoder.bias f4 [101]
-3.1152163 -3.2451262 1.197871 -3.0003743 1.5654795 -3.6593168 -3.4871156 -2.2898154
2.5137022 -2.2058082 -2.944685 2.2256775 2.542096 2.7544532 1.0253329 2.30554
3.8340864 2.235482 4.372819 1.8086903 2.5679038 -3.1705267 -0.61122465 0.20971674
-2.9090629 2.4340196 -1.2362363 -2.9326477 -5.581402 0.6520246 0.54552984 -3.6246467
1.1700102 -4.7660866 -2.804924 1.8805095 -1.9568499 -0.7312291 -0.45693165 -0.3179428
-1.4015491 0.46727175 -3.585016 -3.325735 -2.976971 -2.7886412 -3.0116744 -2.8601332
-3.3778656 -3.5681026 -3.097339 -2.9310465 -3.2793512 3.9691694 2.2883003 -3.577251
2.053139 -3.36165 1.4793804 -2.8401449 -3.0154889 0.04226003 -2.1771615 -3.4130917
-0.59423494 0.7666385 -3.6185577 -2.9641418 -2.9736357 -2.9944127 -2.890903 -3.0304534
-2.9604318 -2.9145284 -3.5353374 -3.310694 -2.9721274 -3.3133273 -3.3874292 -3.3548033
-3.327832 -3.269669 -3.4950554 -3.3651936 -2.8882844 -3.413003 -2.9924932 -3.5699942
-3.5566714 -3.2612407 -2.8654292 -3.5267792 -3.0083091 -3.151001 -3.5878024 -3.5613062
-3.1238546 -3.4884112 -2.9023123 -3.5193257 -0.15221506
00000000: b45f 47c0 26b0 4fc0 d653 993f 2206 40c0
00000010: a261 c83f 3f32 6ac0 e72c 5fc0 568c 12c0
00000020: 7fe0 2040 f62b 0dc0 b875 3cc0 8071 0e40
00000030: b3b1 2240 f648 3040 1c3e 833f f88d 1340
00000040: ac61 7540 2312 0f40 22ee 8b40 2a83 e73f
00000050: 8958 2440 e9e9 4ac0 3879 1cbf fcbf 563e
00000060: 162e 3ac0 fac6 1b40 fe3c 9ebf 80b0 3bc0
00000070: d89a b2c0 16eb 263f d8a7 0b3f 36fa 67c0
00000080: e5c2 953f c883 98c0 e083 33c0 89b4 f03f
00000090: 0f7a fabf d531 3bbf f2f2 e9be 66c9 a2be
000000a0: f665 b3bf 3e3e ef3e e770 65c0 d8d8 54c0
000000b0: b186 3ec0 1979 32c0 46bf 40c0 6c0c 37c0
000000c0: f32e 58c0 cb5b 64c0 cd3a 46c0 4496 3bc0
000000d0: e4e0 51c0 df06 7e40 8373 1240 aef1 64c0
000000e0: a166 0340 4625 57c0 565c bd3f efc4 35c0
000000f0: c5fd 40c0 da18 2d3d 9d56 0bc0 1870 5ac0
00000100: c81f 18bf 6c42 443f 7396 67c0 80b4 3dc0
00000110: 0c50 3ec0 75a4 3fc0 8e04 39c0 f3f2 41c0
00000120: b777 3dc0 a287 3ac0 f842 62c0 69e2 53c0
00000130: 5637 3ec0 8e0d 54c0 a4cb 58c0 19b5 56c0
00000140: 33fb 54c0 4242 51c0 fdae 5fc0 555f 57c0
00000150: a7d9 38c0 a46e 5ac0 0285 3fc0 c97a 64c0
00000160: 81a0 63c0 2bb8 50c0 3163 37c0 c0b6 61c0
00000170: 2388 40c0 00aa 49c0 8e9e 65c0 71ec 63c0
00000180: 3ced 47c0 2142 5fc0 7cbf 39c0 a23c 61c0
00000190: 44de 1bbe
