tracegnn/models/gtrace/model_seed1234.pth (torch, 49209 bytes, 34 tensors)

embedding.operation_embed.weight f4 [100, 4]
000000 c1 db bc bd 6e de d1 be 0d d6 09 3e 36 4f 3a bf
       -0.09221602 -0.40990013 0.1346056 -0.72777116
000010 d5 3b 36 3d ef 3b 0d 3f 36 b3 49 bd d9 92 c5 be
       0.044490654 0.55169576 -0.049243174 -0.38588598
000020 60 b4 7d 3f 74 fa 44 3f 3b 73 87 bf b0 7b 99 3d
       0.99103355 0.7694466 -1.058204 0.07494295
000030 12 17 17 bf f4 bd de bf d6 4b af be 16 1b 58 be
       -0.5901958 -1.7401719 -0.34237546 -0.21104082
000040 97 2d 22 3f 93 dd 82 be 73 d8 ac bf 4c 6e 7c be
       0.63350815 -0.25559673 -1.3503555 -0.2465145
000050 61 5b 74 3e b0 07 cf 3e 75 d3 a2 be f0 75 16 bf
       0.23862983 0.40435553 -0.31801954 -0.5877371
000060 9a 35 10 be b1 32 9a bf 71 82 3a 3e 72 24 50 3e
       -0.14082947 -1.204672 0.18213822 0.20326403
000070 95 95 79 bf 67 f8 7f 3e 89 7f 89 bf c6 86 db 3f
       -0.9749387 0.24997102 -1.0742046 1.7150505
000080 38 23 82 bf 65 f3 13 3f 63 43 40 bf cf 0f 9e bf
       -1.0166998 0.57793266 -0.75102824 -1.2348574
000090 37 a4 5d bf 6b 42 97 bf b5 b5 1d c0 b4 71 f1 3e
       -0.86578697 -1.1817144 -2.4642155 0.4715706
0000a0 2d 37 46 3f f1 6a d3 3b 3a a5 84 be 72 6c 74 bf
       0.7742794 0.0064519574 -0.25907308 -0.95477974
0000b0 12 34 f7 3f 5f c9 65 bf ce 22 1a 3f cb c0 04 bc
       1.9312766 -0.8976039 0.6020936 -0.008102606
0000c0 bd ae ca 3f 46 07 da bd 6e 59 97 bf a0 25 e5 bf
       1.5834576 -0.106459185 -1.1824167 -1.7902107
0000d0 21 55 45 bf d9 37 4f 3e 7f 1a 35 bf 82 e1 c6 3c
       -0.7708302 0.20236148 -0.70743555 0.024277452
0000e0 12 71 88 3f 17 f7 ab 3f 7d 5b 40 bf 94 0b 4c bf
       1.0659506 1.3434781 -0.751396 -0.79705167
0000f0 50 e0 3a 3f 68 14 a6 bf 6e 1d a8 bf 70 66 87 3e
       0.72998524 -1.2974977 -1.3133981 0.2644534
000100 8b 95 34 3f f3 2f db 3e 9c d5 da 3e 3f c5 cc be
       0.70540684 0.4281002 0.42741096 -0.39994237
000110 23 ed 3f 3f 80 b9 5f bf b4 e4 e5 3d 11 ae 49 3e
       0.74971217 -0.87392426 0.11225262 0.19695307
000120 b6 7f 16 3e 9b 44 09 bf 98 39 af bf 3b da 0d 3f
       0.14697155 -0.5362031 -1.3689451 0.5541112
000130 48 0f a9 3f 81 95 87 bd 7a 4d 6f be 09 c1 6b 3e
       1.3207788 -0.066203125 -0.23369399 0.23022856
000140 e7 ed 2d 3f 2f 4f 1f be 0e d6 c0 3c a2 38 8b bf
       0.67941135 -0.1555755 0.02353957 -1.0876658
000150 98 13 b6 3e 55 e9 71 3e 25 b9 51 be bb 64 2c 3e
       0.35561824 0.23624165 -0.20480783 0.168353
000160 51 d8 89 3f 6c e4 72 bf cc ed c0 be ae d7 ff be
       1.076914 -0.94879794 -0.37681425 -0.49969238
000170 da 64 28 be 1f 95 e4 3f 7d 56 d1 bf 59 ff 4a 3e
       -0.16444722 1.7858008 -1.6354519 0.1982397
000180 fb 1c 1c 3f 08 07 a8 3f 6e 99 24 be 61 1d 4c be
       0.6098172 1.3127146 -0.16074154 -0.19933082
000190 41 67 ba 3f 06 f3 01 3f e1 22 95 bf 04 fd e1 be
       1.456276 0.5076145 -1.1651269 -0.44138348
0001a0 59 b1 99 3d 2c cc a1 3e e9 8b ee bf b7 01 8c 3f
       0.075045295 0.31601083 -1.8636447 1.0938023
0001b0 6a d0 f1 3e 6b bd 5c 3d e0 a0 9e bc 72 8f 3b 3f
       0.4722932 0.05389158 -0.01936382 0.73265755
0001c0 49 9c 3b 3e e8 99 79 bf 19 93 e0 3f 4e 2e 14 40
       0.18321337 -0.9750047 1.7544891 2.3153262
0001d0 75 ef 12 bf 36 bc 3d be d8 63 bd 3f e0 d4 cb 3e
       -0.5739663 -0.18528828 1.4796095 0.39810848
0001e0 fd e4 c3 3f 2b 0f d2 3e fc 5e eb 3d 84 3f a1 3f
       1.5304257 0.41027197 0.11492726 1.2597508
0001f0 b1 bc 11 3f 91 ff f6 be 33 d3 3f 3f 09 e5 cc 3e
       0.56928545 -0.48241857 0.7493164 0.4001849
000200 b5 7f 95 3f 89 1a 19 3d 20 fb b9 bf ff 08 6e 3f
       1.1679598 0.03737882 -1.4529762 0.92982477
000210 8a be ea 3f 9a 0b b1 3f b9 cc 6a bf 2b b2 a2 be
       1.8339398 1.3831666 -0.9171863 -0.31776556
000220 c2 bb 0b c0 ec ae 9d 3c 6c 0f 12 bf f4 89 23 bf
       -2.1833348 0.019248448 -0.5705478 -0.63882375
000230 a6 28 37 3f df b8 8d be 68 15 70 3f ae 4a 07 3f
       0.715464 -0.27680108 0.93782663 0.5284833
000240 19 e7 41 be 84 7b bf 3e 58 1a 30 3f 65 e6 cd bf
       -0.18935813 0.37398922 0.687902 -1.6085936
000250 08 cc bd bf 5c 3b 7e bf ff 36 49 3f 6f dc 7a 3e
       -1.482789 -0.99309325 0.7859954 0.24498151
000260 03 b5 94 bf d5 bc a8 be e1 02 72 3f 2f 0d eb bf
       -1.161774 -0.32956567 0.9453564 -1.8363398
000270 17 3f b8 bd 0c 10 1c 3f df 50 ee be 02 2c e0 bf
       -0.089964084 0.60961986 -0.46546075 -1.751343
000280 9e 22 36 bf 6b 3e 8f bf 65 b9 de be 68 a4 d7 3e
       -0.7114657 -1.1190923 -0.4350082 0.4211762
000290 84 0e 9c bf 93 f3 9e bf a5 15 95 3e 44 25 d6 3c
       -1.219193 -1.2418083 0.29118076 0.026140817
0002a0 ec 08 cb bf 8c 36 8b bf 1c d0 81 3f 9e 6f 14 3f
       -1.5862098 -1.0876021 1.0141635 0.57982814
0002b0 57 81 65 bc 7b 2f 6f be 7d 35 08 bf 40 75 86 bc
       -0.014007888 -0.23357956 -0.53206617 -0.016413331
0002c0 53 d2 bd 3d 9a 7d 0b bf 2c ec 03 bf 5e b7 1c bf
       0.09268632 -0.5448853 -0.51532245 -0.61217296
0002d0 b6 a2 90 3e ab cf 72 be 80 1f 0e bf 73 de 3a 3f
       0.2824914 -0.23712032 -0.55516815 0.7299568
0002e0 0b 61 18 3f 64 2b 3b 3e d2 5d 67 be 47 fc 35 3f
       0.59523076 0.18278271 -0.22594383 0.7108807
0002f0 e0 10 4e bd e7 a6 de 3f bb d4 51 bf c7 c3 94 3f
       -0.050309062 1.7394685 -0.81965226 1.1622247
000300 5f e5 27 bf 8d d3 01 3f d6 c5 66 be 7c f8 ae 3f
       -0.6558437 0.50713426 -0.22536406 1.3669581
000310 28 49 93 3f 4e 0b 00 3f 83 b1 3a 3e a7 3a 2e bf
       1.15067 0.5001725 0.18231778 -0.68058246
000320 57 05 1a 3f c6 05 1b bf 69 13 a5 3f 92 b4 57 bf
       0.601644 -0.60555685 1.2896549 -0.84259903
000330 3b 21 6d bc 6c 47 42 bf 43 66 46 bf ce 30 cd bf
       -0.014473255 -0.7589023 -0.7749979 -1.6030519
000340 ae db 44 3e 96 be 68 bf 63 c9 83 bf d3 27 1e bf
       0.19224426 -0.9091581 -1.0295833 -0.61779517
000350 85 1c 54 bf 5e 53 b5 3e 4d 36 b5 bd ed 2f 33 bc
       -0.8285602 0.35415167 -0.08848248 -0.010936719
000360 6f ff 35 3f a7 0c e5 be 14 a7 8a 3f bb 93 5d bf
       0.71092886 -0.44736215 1.0832238 -0.86553544
000370 49 a4 3f 3f 9b c8 a5 3f bc 5d bb bd a9 7b 59 be
       0.74860054 1.2951845 -0.09148738 -0.21238579
000380 21 6e 51 3f b3 d6 de be 73 a2 a5 bf cc 24 2b 40
       0.8180867 -0.43523178 -1.29402 2.674121
000390 6b 03 1d 3e 16 ff 0f be 56 06 59 3f a2 07 6e 3d
       0.15333335 -0.14062151 0.8477529 0.058112748
0003a0 2d 5c de 3e 28 a7 0b c0 c6 9c 8b bf 91 e6 42 3f
       0.434297 -2.1820774 -1.0907218 0.76133066
0003b0 d1 f3 fe be ab 52 3e bf 7d 2a cd bf ab 5a a5 3e
       -0.49795392 -0.7434489 -1.6028591 0.32295737
0003c0 40 98 39 be 16 16 00 3f e2 f4 1f 3d 76 c4 27 3c
       -0.18124485 0.500337 0.039051898 0.010239711
0003d0 77 b7 87 be 9a 99 1e 3e f9 c3 8d be 2d 9d 80 bf
       -0.2650716 0.15488282 -0.27688578 -1.0047966
0003e0 4e b9 d8 be 98 a5 2f bf 68 26 9f bf f4 d5 52 3e
       -0.42328876 -0.6861205 -1.2433596 0.20589429
0003f0 18 d4 5e bf 9a c8 26 be b3 14 34 3f d7 d1 ab be
       -0.8704238 -0.16287461 0.70344085 -0.33558533

embedding.service_embed.weight f4 [100, 4]
000000 b5 83 8f bf d5 f0 1d be 07 8c 8b bf af 0e 99 3f
       -1.1212069 -0.15423901 -1.0902108 1.1957606
000010 6b f6 f7 bf d5 d3 a5 bf b7 c4 a0 bd ac ed 4d 3e
       -1.9372076 -1.2955271 -0.078500204 0.20110196
000020 22 1b fc be b9 b8 07 3f 53 c7 30 3f 04 6e 93 be
       -0.4923945 0.5301624 0.69054145 -0.28794873
000030 1c 02 4c bc 0a 8b 7f 3f 7c f7 d3 bd a1 27 cf 3f
       -0.012451675 0.9982153 -0.10349938 1.6183969
000040 fa 1a 67 bf e8 dd 59 bf 6d 32 9b 3e cc d1 7d 3f
       -0.9027554 -0.8510423 0.3031191 0.9914825
000050 21 1b 84 bf bd 80 79 bf 48 a0 a2 3f d1 27 95 3f
       -1.0320779 -0.97462064 1.2705164 1.1652776
000060 e6 d9 03 3f 90 0f d8 be 98 28 a7 3f 20 57 1b bf
       0.5150436 -0.42199373 1.3059263 -0.6067982
000070 e8 91 1f 3f 26 5a 90 3f 2a 54 c2 be 29 e7 0c 3f
       0.6233201 1.1277511 -0.37954837 0.5504022
000080 e7 73 c3 be 79 06 d0 3f 1b 68 69 3e 50 7f 0d 3f
       -0.38174364 1.6251975 0.2279362 0.5527239
000090 50 de 03 40 e2 96 87 bf 3b 04 a1 bf c8 df 19 40
       2.0604439 -1.0592921 -1.2579416 2.4042835
0000a0 7b 3b 13 bf 6e 71 86 3f 2b 2e e4 3e d3 a9 1f 3f
       -0.57512635 1.0503366 0.44566473 0.62368506
0000b0 8f 2a a7 3e 63 43 7f 3f 5c 00 d9 be b5 9c 02 3f
       0.32649657 0.997122 -0.42383087 0.51020366
0000c0 f4 de 0a 40 19 17 95 3f 02 fb 1e bf a2 68 7f bf
       2.169858 1.1647674 -0.6210176 -0.9976903
0000d0 2c 53 12 bf 64 e3 16 c0 d8 f9 35 bf 70 99 ab be
       -0.5715816 -2.3576288 -0.71084356 -0.335155
0000e0 c3 13 66 3e 22 6f 7c 3e 47 df c7 3e 16 62 c7 be
       0.22468476 0.24651769 0.39037535 -0.3894202
0000f0 24 7c 77 bf 54 3e ce bf 78 08 20 bf d6 42 1f be
       -0.966738 -1.6112771 -0.6251292 -0.1555284
000100 84 a4 3b 3e 31 5f 79 3d 20 11 63 3f 5d 41 26 3f
       0.18324476 0.060881797 0.88698006 0.64943486
000110 b8 d2 8e be a9 82 ee bd fa 91 d5 bd 72 f7 41 bf
       -0.2789514 -0.11646015 -0.104282334 -0.75768197
000120 b9 47 64 3f 17 00 29 bf 14 5e 39 bf f3 7c 58 bf
       0.8917194 -0.6601576 -0.72409177 -0.8456566
000130 95 3a 3a bf 68 ab d2 3f ae 33 b1 3d 36 47 6b 3f
       -0.7274564 1.6458559 0.08652435 0.91905534
000140 83 1b d4 bc 28 af bc 3e 26 55 9c 3f c0 6b 5c bf
       -0.025892025 0.36852384 1.2213485 -0.86101913
000150 eb 54 28 3f 2e d1 c3 3e bd 71 df 3e e7 57 9d 3d
       0.65754575 0.3824553 0.43641463 0.07682782
000160 34 70 87 3f c9 e7 04 bf a8 a8 19 3f 91 14 97 bf
       1.0581117 -0.51916176 0.60022974 -1.1803151
000170 90 85 62 be dc 5b 2c 3f 95 3a 2e 3e 99 8c 14 bf
       -0.22121263 0.67327666 0.17014535 -0.58027035
000180 a5 c5 f3 3e 50 fb 7c bf 9d c4 60 3e 6b d8 15 bf
       0.47611728 -0.9882097 0.21950002 -0.5853335
000190 24 1c f7 3d 1a de bd bf 9d 13 97 be aa e0 99 bf
       0.12065914 -1.4833405 -0.2950715 -1.2021687
0001a0 6b 71 b5 3f 22 34 57 bf 67 13 de bf 16 6b b3 bf
       1.4175237 -0.84063923 -1.7349671 -1.4017055
0001b0 8b 34 5b bf 3f 0b 43 3f e0 c2 0c bf 2f 96 02 bf
       -0.8562705 0.76189035 -0.54984856 -0.5101041
0001c0 98 7b 8a 3f 73 b1 9b 3f 47 01 71 be 8a 77 9d be
       1.0818968 1.2163528 -0.23535644 -0.30755264
0001d0 5d 00 af bf 63 83 95 bf cb 50 20 be 4e b4 bc 3f
       -1.3671986 -1.1680721 -0.1565582 1.4742525
0001e0 d1 30 be 3f 4b db 4e 3f 01 89 c3 be fb 42 9e bf
       1.4858648 0.80803365 -0.38190463 -1.2364191
0001f0 c9 0e aa be c1 a4 0e be af 24 1a bf c7 97 f6 bf
       -0.33214405 -0.13930036 -0.60212225 -1.9265069
000200 21 63 cf be cd 13 9a bf cc 9a a8 3e 9d e6 8c 3e
       -0.40505317 -1.2037293 0.329306 0.27519694
000210 f6 e6 ae be 5a 50 2d 3d 67 eb 91 bf 34 4c 3d 3f
       -0.34160584 0.042312957 -1.1399964 0.739444
000220 2e 62 fc 3e 43 b4 bb 3d 8b a6 23 3f 89 64 0c bf
       0.49293655 0.091652416 0.63926 -0.54840904
000230 a7 02 02 3f 6c 01 dc be ff b8 bc bf 89 87 8b 3c
       0.507853 -0.42969835 -1.4743956 0.017032402
000240 c0 89 53 be 44 6e f5 bd cc 79 8d 3f 85 81 01 c0
       -0.20658016 -0.11983922 1.1052794 -2.0235302
000250 5e 86 9d bf bc eb 28 bf ce e6 9a 3f 80 f5 7c 3e
       -1.2306631 -0.659847 1.2101686 0.24703026
000260 29 95 ec bd 53 b4 60 3d 7f 29 d7 bf 14 1a cf be
       -0.115518875 0.05485947 -1.6809539 -0.40449584
000270 05 45 97 3c 5a 05 41 3e 84 ea 1c be 8b d7 ae 3e
       0.018465528 0.18849698 -0.15323836 0.3414882
000280 81 17 a1 3f ee 11 9b bc a6 68 73 bf 64 9a 82 be
       1.2585298 -0.018929448 -0.95081556 -0.25508416
000290 7c 02 9e bf b1 09 1f bf 0e e2 09 bf 0e f2 ff 3f
       -1.2344508 -0.6212416 -0.5386056 1.9995744
0002a0 2b a4 db 3e 6a 2b 87 be 85 22 10 bf 59 c1 64 3e
       0.42898688 -0.2640031 -0.5630267 0.22339381
0002b0 c5 6a 12 3f e5 c9 f3 bf 76 b4 b1 3e 43 59 53 3e
       0.5719417 -1.9045988 0.34707993 0.2063952
0002c0 d8 5d 6c 3e 98 b1 80 3f 52 01 12 3e 70 d8 2e 3e
       0.23082674 1.0054197 0.14258316 0.17074752
0002d0 03 fe 93 3f b6 dd 57 bf ff 17 d8 be 2a 88 d8 be
       1.1561893 -0.8432268 -0.42205808 -0.42291385
0002e0 ce b1 2f bf 9a 83 ca bf b3 c1 8e be cd 84 38 bf
       -0.68630683 -1.5821412 -0.27882156 -0.7207764
0002f0 d2 bb 13 3f 4b 14 b6 bf 30 8e 45 3d 89 c4 62 be
       0.57708466 -1.4224943 0.048231304 -0.22145285
000300 d1 ed 90 3e 40 48 f7 bf c5 d4 3a bf 29 c5 9f be
       0.2830644 -1.9318924 -0.7298091 -0.3120511
000310 e3 5d ac bf 6b 93 03 3e e7 73 08 3f 51 70 2a bf
       -1.3466152 0.12849204 0.5330185 -0.6657763
000320 8c 8c 26 3f 13 a8 af bf d8 45 15 bf a6 42 bd 3e
       0.6505821 -1.3723167 -0.583097 0.3696491
000330 3e ba b5 be 19 d4 72 3f 53 0f 5c 3c 04 e7 4e 3d
       -0.35493654 0.94854885 0.013431388 0.050513282
000340 a5 88 0e c0 4b c1 d6 be 65 c1 38 3f 78 56 47 be
       -2.2270901 -0.41944346 0.72170097 -0.19466579
000350 6d d5 4d 3e 44 85 e5 3e 61 73 1e 3f ed 40 d1 3d
       0.20100947 0.44828236 0.61894804 0.10217462
000360 62 98 de 3d c7 ca cc 3d f7 f8 59 bf 4d d7 17 bf
       0.108689085 0.09999614 -0.85145515 -0.593129
000370 a2 f6 56 bf 6c 9c 86 3f 44 29 fe 3d 45 d9 99 3e
       -0.8397008 1.0516486 0.124102145 0.30048576
000380 b6 20 99 be 5a 28 4d 3f fc b2 3a 3f 05 e3 7a bd
       -0.2990777 0.80139697 0.7292936 -0.06125166
000390 cd 82 06 bf a5 6f 13 bf e5 5b 08 3f c8 9b 1a c0
       -0.52543336 -0.5759223 0.5326522 -2.4157581
0003a0 f0 3a 68 3e 27 6d 01 bf 1c 46 77 be 76 f8 67 bf
       0.22678733 -0.5055718 -0.24147838 -0.90613496
0003b0 8c f9 12 3f 3b d3 22 bf 8b 34 80 3f 26 a1 29 3f
       0.5741203 -0.6360356 1.0016035 0.6626152
0003c0 fa 3b cf be 1c 4e 59 3e f1 3d 76 be a3 53 0b bf
       -0.40475446 0.21221203 -0.24047066 -0.54424495
0003d0 96 db 93 bf f8 ad e7 be 70 b2 02 3f 82 28 56 bf
       -1.1551387 -0.45249915 0.51053524 -0.8365556
0003e0 80 01 02 bf da cf b4 be fe a4 66 3e 83 b4 f4 be
       -0.5078354 -0.35314828 0.22523877 -0.4779397
0003f0 29 e5 13 3d b3 e9 57 3f be f9 5a 3f 90 40 7e 3f
       0.036107216 0.8434097 0.85537326 0.99317265

embedding.status_embed.weight f4 [100, 4]
000000 64 70 3b be a5 b2 f9 3d 0c 73 1e be 14 89 52 3f
       -0.18304592 0.12192277 -0.15473574 0.82240415
000010 94 1c f4 3e f8 ea 23 3e e4 e5 6f be 1a 4c 8a 3f
       0.47678053 0.16007602 -0.2342754 1.0804474
000020 18 75 10 be 22 0e 80 3f cc 4f 46 3f 78 21 89 3e
       -0.14107168 1.0004313 0.7746551 0.26783347
000030 ab 07 f4 bf 57 62 cd 3e 4b 29 ad ba b2 4d dc 3e
       -1.906484 0.4011409 -0.0013211159 0.43028027
000040 05 9e c0 3e f7 8e 66 bf 1b 55 04 3e 1a 9a 60 bf
       0.3762056 -0.900619 0.1292309 -0.8773514
000050 44 32 24 3f d2 28 a9 3e 33 8c 14 3d 98 4d 7b be
       0.641392 0.33038956 0.036266517 -0.24541318
000060 b0 50 a6 be cd 0d 99 be b0 eb 33 c0 e1 49 bb bd
       -0.32483435 -0.29893342 -2.8112602 -0.09144951
000070 12 93 23 bf b1 58 40 3f 8b 94 89 3f 98 35 38 3f
       -0.63896286 0.7513533 1.0748457 0.7195678
000080 74 d2 27 be da 48 74 bf 7e e6 22 bf 31 b8 c4 be
       -0.16388875 -0.9542366 -0.63632953 -0.38421777
000090 55 91 a2 be b1 69 b8 be 0e 9e e4 3e 3f 3f 80 bf
       -0.31751505 -0.36018136 0.44651836 -1.0019301
0000a0 d9 b1 2a bf 7e 00 bc be c8 b6 96 3f 4c df 58 3e
       -0.66677624 -0.36719126 1.177453 0.21178931
0000b0 58 aa af 3e 8e bc b8 3f 2a 04 a1 3f a2 32 03 3f
       0.3430965 1.4432542 1.2579396 0.51249135
0000c0 8b 9f 0d be 85 4b 00 bf 33 c4 ea 3c 93 6b 4d bf
       -0.13830392 -0.50115234 0.028658008 -0.8024227
0000d0 60 ad b0 bf 0a 2a b4 3f 93 63 37 3f d6 8d 8e bf
       -1.380291 1.4075329 0.71636313 -1.1137035
0000e0 4f 91 fe be 95 08 89 be d9 c6 07 bf aa 70 fc bf
       -0.49720237 -0.2676436 -0.5303779 -1.9721882
0000f0 78 36 0e c0 5b a9 5f be 9a 93 d8 3e 6b 09 b1 be
       -2.2220745 -0.21841948 0.4230011 -0.34577498
000100 02 fc e5 3d ee 56 e7 3f 03 7a 36 be b1 80 b7 be
       0.11229707 1.8073404 -0.17819981 -0.3584037
000110 c8 49 3b be ca 22 1a bf 7c 75 b3 3f 78 3f ee be
       -0.18289864 -0.60209334 1.4020228 -0.46532798
000120 e6 68 e2 bf 9c 1a 37 bc 7b db 41 3f 82 bb c2 bf
       -1.7688262 -0.011175778 0.75725526 -1.5213473
000130 5a 0f 06 3f 17 d1 34 3f c7 6e bd bf 70 86 37 bf
       0.52367175 0.70631546 -1.4799432 -0.7168951
000140 fa fa ce 3c c0 38 f5 bf 01 51 cd 3f 3b e6 b6 bf
       0.02526616 -1.9157944 1.6040345 -1.4289011
000150 b9 9d 84 bf b9 c0 ab 3e e3 54 02 bd 61 1c 30 3f
       -1.0360633 0.33545473 -0.031819236 0.687933
000160 73 cb 9a be 4a 06 83 bf 9a ec 58 be 36 2d a5 bd
       -0.30233344 -1.0236294 -0.21184006 -0.08065264
000170 69 22 40 3e ac 84 a5 bf ec c1 41 3f 20 da 80 3e
       0.18763126 -1.2931113 0.75686526 0.25166416
000180 9b 97 3a bf 29 5d a7 bf f6 d9 9c be 96 5c 82 bf
       -0.7288758 -1.3075305 -0.3063504 -1.0184505
000190 bb ca 01 bf ec c4 6c 3e 13 5c e7 be d2 40 9c be
       -0.5069997 0.23121995 -0.45187435 -0.30518204
0001a0 cf 93 2d 3f 51 13 0d c0 12 40 8e 3e 90 91 bf be
       0.67803663 -2.204304 0.27783257 -0.37415743
0001b0 3f f1 1b 3d a9 91 5b be 7d c6 5a bf 79 27 29 3f
       0.038071867 -0.21442284 -0.8545912 0.66075855
0001c0 5e 1a 95 be 2f 0e a1 bf 1f af aa be 15 b5 97 bf
       -0.2912168 -1.2582453 -0.33336732 -1.1852137
0001d0 84 8e 1c 3f 10 17 74 3f 9a 72 b2 bf 01 b1 80 3f
       0.6115496 0.9534769 -1.3941224 1.0054017
0001e0 1b 2e 9e be 07 77 6b bf 91 83 55 bf 9c 45 fb 3e
       -0.3089455 -0.91978496 -0.8340388 0.49076545
0001f0 98 6a 91 3e 86 ab a7 3f 9d da 3c bf 22 9d 4e 3c
       0.28401637 1.309922 -0.7377108 0.012610706
000200 7b ae 32 3e e6 0a 81 3e e5 5d 06 3e d2 2f 0c 3f
       0.17449372 0.25203627 0.13121755 0.5476047
000210 46 ce 46 be de d0 cb 3e 0b 64 93 be ba 58 da be
       -0.19414625 0.3980779 -0.28787264 -0.42645818
000220 9e 72 18 bd 21 2b 08 3f d8 5b b1 3f ea 3a 3d 3f
       -0.037218682 0.5319081 1.3856153 0.7391802
000230 c1 6f d6 3e a5 f4 98 be 5b c4 24 bf 8b 31 d0 bd
       0.41882136 -0.2987415 -0.64362115 -0.101656996
000240 a1 cb f4 bc 5f 4e 79 be 50 3d 08 c0 82 c6 54 bf
       -0.029882254 -0.24346302 -2.1287422 -0.831154
000250 fe a6 c8 3f f8 31 51 3d f4 db 42 3e f3 2b d2 bd
       1.5675962 0.051073045 0.19029218 -0.10262289
000260 48 a5 b9 bd 03 73 a1 3f 96 a5 c8 be f0 ab f6 be
       -0.09064728 1.2613224 -0.39188832 -0.48178053
000270 45 cf 4b be 69 b9 3f 3f 5a 62 aa 3d 83 ea 72 3f
       -0.19903286 0.7489229 0.0831954 0.94889086
000280 f7 8f bf bf f2 92 22 bf 58 46 24 bf e3 1a d0 be
       -1.496581 -0.6350547 -0.64169836 -0.40645513
000290 4a 11 18 bf 7c 4a b3 bd 49 52 65 3f 05 06 54 3d
       -0.5940138 -0.08754441 0.8957868 0.051763553
0002a0 9a 50 2a 3f cb b3 16 3e e5 fe 2a bf 90 80 4f 3e
       0.6652924 0.14717023 -0.6679519 0.20263886
0002b0 a7 5a 24 be be c2 9b be 09 a0 4a bf 79 4a c9 bf
       -0.16050206 -0.30422014 -0.79150444 -1.5725852
0002c0 c8 fa 89 bf 33 fc 9a bf 8b 2c 8c be 6d 13 b1 be
       -1.0779657 -1.2108215 -0.27377734 -0.34585133
0002d0 31 2c 95 bf 1b d7 04 c0 47 80 26 bf 79 d1 dc be
       -1.1654111 -2.075629 -0.65039486 -0.43128565
0002e0 6c 01 d0 3e 04 a6 ba 3f dd ad 08 3d 96 87 bc 3e
       0.40626085 1.4581914 0.033368934 0.36822194
0002f0 2e 11 af bf 57 21 01 bf 4f 5f 27 3c ab 3e d8 3f
       -1.3677118 -0.504415 0.010215594 1.6894125
000300 58 9b c4 be aa d4 fc 3e b4 d1 6a 3e ca c2 bd 3f
       -0.38399768 0.49381 0.22931558 1.482507
000310 50 9f 18 3f b7 57 fa 3e 64 3e 54 bf 1e f3 1e be
       0.5961809 0.48895046 -0.829077 -0.1552243
000320 9e 36 b8 3f 39 be 55 be 27 3e 6f bf fc 41 eb be
       1.4391668 -0.20873345 -0.9345421 -0.4594878
000330 58 95 a9 3d 5d 84 bd 3d 82 d6 52 bf 4b 47 a1 be
       0.08280438 0.09253762 -0.8235856 -0.31499705
000340 2b 26 11 bf df d0 be bd 07 52 6c 3f 68 cc 26 3f
       -0.56698865 -0.09317183 0.92312664 0.6515565
000350 e6 4f e2 bc df 11 86 bf 9c 72 d0 3f d5 76 30 bf
       -0.02762599 -1.0474204 1.6284976 -0.68931323
000360 89 43 2d bc d0 0c 9f 3f 5a a2 17 bf d9 6d 45 be
       -0.010575184 1.2425785 -0.59232104 -0.19280185
000370 2d dc 09 40 c0 8d ad bf 3b 4e 55 bf 00 11 95 be
       2.1540635 -1.3558884 -0.83322495 -0.29114532
000380 84 ab e4 3e 8b 0f 3c 3f d7 a2 64 be e7 62 1f c0
       0.44662106 0.73461217 -0.22327743 -2.4904115
000390 db e7 a5 3d 2c 7e d7 bd 51 a1 b8 3d 75 e2 2f be
       0.081008635 -0.10522112 0.09015144 -0.1717623
0003a0 a7 64 17 bf ee 2c eb 3e c8 24 e9 be 15 87 25 be
       -0.5913796 0.45932716 -0.45535874 -0.16164811
0003b0 6f b3 1e bf c3 3b 90 3f b5 62 90 3e af 5a 83 3f
       -0.61992544 1.1268238 0.28200307 1.026205
0003c0 72 6d 86 be f5 76 0a be 63 0e 18 bf d7 33 85 be
       -0.26255375 -0.13521941 -0.5939695 -0.26016113
0003d0 3a b7 12 be 8e 79 9b be 4c 82 7d be 14 db 66 bf
       -0.14327708 -0.30366176 -0.24756736 -0.90178037
0003e0 3d bf 54 3f f4 89 ed 3f fa e8 36 bf f6 69 b6 be
       0.83104306 1.8557725 -0.71449244 -0.35627717
0003f0 9b b6 0e 3f 28 1f 40 bf 2b e6 3a 3f ff 9a 08 be
       0.55747384 -0.7504754 0.7300746 -0.13340376

encoder.tree_lstm.cell.graph_linear.weight f4 [48, 24]
000000 99 4c 62 3e c3 cd ff 3d b5 95 cc 3c 8a a1 35 3e
       0.22099532 0.12490418 0.02497373 0.17737404
000010 40 af 18 3e 0c c6 14 3e 47 4a 72 3e f9 00 cf be
       0.14910603 0.14528674 0.23661147 -0.4043043
000020 34 8e f4 3c e2 bf 89 3e f0 07 8e be 1d e9 57 3d
       0.029852964 0.26904207 -0.2774043 0.05271255
000030 cd fc 9e 3c 00 ab fc 3d a2 63 15 3e ec 3e 29 bb
       0.019407654 0.12337303 0.14588788 -0.0025824858
000040 9e 08 8f 3d a8 7d 47 bc 59 3e c9 3c 2e de 2d bd
       0.069840655 -0.012175955 0.024565862 -0.042448215
000050 4e 5f 9f bd 47 31 d9 bd 55 98 1d be 46 af a1 bc
       -0.0778185 -0.10605102 -0.15390141 -0.019736897
000060 8a 07 ba be 56 8a ae 3d 2b ad b1 bd e0 57 74 be
       -0.36333877 0.08522479 -0.08675607 -0.23861647
000070 11 6f 51 3e 29 41 7f be b5 b4 3b 3e e6 e7 80 be
       0.20452525 -0.249272 0.18330653 -0.25176924
000080 9d 5b 95 3e 61 22 84 3e d7 0a 9b be c1 60 81 3e
       0.29171458 0.2580748 -0.30281708 0.2526913
000090 30 81 31 bd 94 b9 28 be f9 c6 6d bd 1d f9 a8 3c
       -0.043336093 -0.16477042 -0.058051083 0.020626599
0000a0 2c ac bd 3d ac 61 1e 3c 83 e9 02 3e 89 55 1a be
       0.09261355 0.0096668415 0.1278439 -0.15071692
0000b0 25 32 96 bd 61 47 2b be 47 fd 9a bc 3b be f6 bd
       -0.07333783 -0.16726448 -0.0189196 -0.12048002
0000c0 31 92 0b 3e 66 91 c0 bc b9 c8 e4 be d1 09 b9 3e
       0.13629986 -0.023506831 -0.4468439 0.36140302
0000d0 73 af 2b be 73 ba 7a 3a 9b 52 7b 3d 2f cc 14 3b
       -0.16766147 0.0009564526 0.061358076 0.002270471
0000e0 65 a1 c6 3e 60 bc b9 3d 42 31 a5 bd 86 6f 8e 3e
       0.3879501 0.09069133 -0.08066036 0.2781946
0000f0 6f 94 a8 bd 91 ee e1 bd 85 d0 65 3d 19 7f 5b bc
       -0.082314365 -0.11031831 0.056107063 -0.013397002
000100 50 22 0a 3e af 82 a5 3c 04 26 1f be 35 96 58 bd
       0.13489652 0.020203916 -0.15541846 -0.052877624
000110 92 a4 85 bd 65 08 c6 bd 8e 07 b8 bc b9 51 92 3d
       -0.0652553 -0.0966957 -0.02246454 0.071444936
000120 42 79 52 3e 61 74 d3 3e 1e e3 71 3d e4 27 21 3d
       0.20554069 0.41299728 0.059054486 0.039344683
000130 b8 52 fb 3d 27 c9 b7 be 0c 3a 9f 3e 71 0b 32 3e
       0.12271637 -0.35895655 0.31098974 0.17387177
000140 24 c1 20 3f 46 4b 71 3f 05 b0 3d bf 3d ec 48 3f
       0.6279471 0.94255483 -0.7409671 0.7848547
000150 41 32 c1 bd 46 a5 09 be 1f 1f 65 bd e4 77 0e 3e
       -0.09433413 -0.13441953 -0.055937883 0.13912922
000160 f7 27 ae bd 3f ed db bd a6 9a 7e 3d ea 98 12 3e
       -0.085037164 -0.107386105 0.062159203 0.14316145
000170 7b cb 43 3c a6 8c 36 3d 5d b2 df 3d f0 06 4a bd
       0.011950369 0.044567727 0.10922692 -0.049323022
000180 18 e3 f8 3c fa fd a7 3d 25 34 fe be 1d 60 0d 3f
       0.030381724 0.08202739 -0.49649158 0.5522478
000190 a3 36 af bc dd 3c 1f 3f b7 a8 6a bd f5 7c 81 be
       -0.021388358 0.62202245 -0.057289805 -0.25290647
0001a0 9f 29 20 bc ee 2c 47 bd 0e 57 44 be 5a 10 30 3d
       -0.009775548 -0.048626833 -0.19173834 0.042984344
0001b0 35 33 03 3e 03 13 06 be 70 43 85 bd 74 da 4d 3d
       0.12812503 -0.1309319 -0.06507003 0.05025716
0001c0 e7 74 58 3c 28 2c 97 bd 53 ec e3 3d e6 6d c3 bd
       0.013211465 -0.07381469 0.1112906 -0.09542446
0001d0 86 e0 a3 3d 64 7c 25 3d b4 0b c2 bd 12 bb ca 3c
       0.08001809 0.04040183 -0.094748884 0.024747405
0001e0 74 fc 8c bd fa ff 3e 3e 92 45 dd bd b3 31 2d 3e
       -0.06884089 0.18652335 -0.10804285 0.1691349
0001f0 3f 5e f7 bd 0d 2a a3 bd 77 37 1a 3d 97 f9 94 bd
       -0.12078523 -0.07967005 0.03765055 -0.07274168
000200 28 71 be 3e c6 89 dc 3e e9 6d 0d bf 0f 92 63 3e
       0.37195706 0.43073863 -0.55245835 0.22223686
000210 0d 72 32 3d 76 b9 0e 3e 65 62 e1 bd 45 51 44 bd
       0.0435658 0.13937935 -0.110050954 -0.047929067
000220 b5 d9 db bd aa 78 06 be 07 a4 18 be ae e1 4b 3d
       -0.10734884 -0.13131967 -0.14906321 0.04977577
000230 31 24 4c bc fe 74 b1 bd 8a 76 28 3e 56 27 a5 bc
       -0.012459801 -0.086648926 0.16451469 -0.020160358
000240 59 fc 8e bd 1c a3 26 3f 45 2b 9d be d7 e3 19 3e
       -0.06981725 0.65092635 -0.30697075 0.1502832
000250 3c 69 04 3e 45 d8 a4 3d a2 d6 64 be ba 9f 2c be
       0.12930769 0.08049063 -0.22347501 -0.16857806
000260 9f 48 b0 3d d9 af 7a 3d c5 ec b5 3d 62 45 c5 3d
       0.086076014 0.061202858 0.08883051 0.09632374
000270 12 6b fc bd e1 cc c5 3d b4 c5 c5 3d 77 81 8b 3d
       -0.123251095 0.09658218 0.096568495 0.06811803
000280 61 06 8d bd 66 7f cc 3d a0 8a 63 bd 71 76 02 3c
       -0.06885982 0.09985237 -0.055552125 0.007962809
000290 06 63 6c 3d 11 92 90 bd ee 6e 18 3e 9f 99 1a 3e
       0.057711624 -0.0705911 0.14886066 0.15097664
0002a0 d9 f4 cb be c8 9c 51 3d 85 11 81 be 05 f6 a1 3e
       -0.3983524 0.05117491 -0.2520868 0.3163301
0002b0 b2 09 0c be 3f 89 00 3f 20 60 35 be 92 54 f9 3d
       -0.13675573 0.5020942 -0.1771245 0.12174334
0002c0 fa 03 d3 3e de 49 e7 3e b7 37 cb be af da 80 3e
       0.4121397 0.45173544 -0.39690945 0.25166842
0002d0 69 81 19 be b9 6f c8 3d 83 5b d7 bc 5d a6 e4 bd
       -0.14990772 0.097869344 -0.026288753 -0.11164544
0002e0 9a e0 4b bd bf 8e 17 be 29 98 0b 3e a9 fd ad bc
       -0.049774744 -0.14800547 0.13632263 -0.021239119
0002f0 04 7f 18 bd fe 76 96 3c 26 13 41 3c 53 e0 d5 3d
       -0.037230507 0.018367287 0.0117843505 0.10443177
000300 5a 5a b5 3d 73 45 dc 3e c2 48 62 bd 25 31 d1 3e
       0.08855124 0.43021736 -0.05524517 0.40857807
000310 02 67 40 3e 14 fd cb bd 81 e8 f8 3c f2 01 82 be
       0.18789294 -0.0996038 0.030384304 -0.2539211
000320 6d d6 8c be 05 cc cb 3c f2 d9 97 3d 43 d8 ee bd
       -0.27507344 0.024877558 0.07414617 -0.116623424
000330 f4 7e 01 3e e3 eb 27 be bd 84 db bc e6 4f 8c 3d
       0.12646085 -0.16398577 -0.026796693 0.06851177
000340 15 6c 9a 3d 97 22 d9 3c cd 2c 8b bb f7 15 26 3e
       0.07540146 0.026505752 -0.004247284 0.16219316
000350 4a 1a 07 be da b1 0e bd a9 4e d9 3d 6d ee 1f 3e
       -0.13193622 -0.03483758 0.10610706 0.15618296
000360 91 6c 4a be a1 45 0e 3e 50 ed 96 bd ef 0b 1d 3e
       -0.19767977 0.13893749 -0.073694825 0.15336584
000370 82 d3 ab 3e 57 a5 2c 3d ab 6c 9b be 07 97 8e be
       0.33559805 0.042149868 -0.30356345 -0.278496
000380 b8 eb 0e be cc ab ef bd aa 7c c9 3c 85 53 24 3d
       -0.13957107 -0.117026895 0.024595577 0.040118713
000390 ed 99 28 3e a7 75 3c bd 14 55 0a 3e 04 57 22 3e
       0.16464968 -0.04601064 0.13509017 0.15853506
0003a0 1d 64 b0 bc 63 3f 20 3e 43 ee 05 3c 04 6e 7b 3d
       -0.021532113 0.1564918 0.008174482 0.061384216
0003b0 c7 82 07 3d 3c 39 cd 3d ae 42 7f 3d 56 16 08 bd
       0.033083703 0.10020682 0.06231945 -0.033224426
0003c0 ba 4b a0 3e 9f 9b 0b 3e 4c 39 ae be 8e b9 ec 3d
       0.31307775 0.13633583 -0.3402809 0.11558829
0003d0 db 47 9e be a5 d2 b8 3e f7 5e b7 3c de 6e 30 3e
       -0.30914196 0.3609821 0.02238415 0.17229792
0003e0 c5 15 40 3d 27 19 f9 3d 51 2b e1 bd 7b 3c 37 3d
       0.04689576 0.121630006 -0.1099459 0.044735413
0003f0 d6 c2 9e 3c 2d 1c f0 bd af 3a ac bd 07 c7 a1 3d
       0.019380014 -0.11724124 -0.084096305 0.078992896

encoder.tree_lstm.cell.graph_linear.bias f4 [48]
000000 1c 6e b9 3d a4 51 78 3d 53 fe bc 3e 21 27 25 3f
       0.09054205 0.060624734 0.36912784 0.6451283
000010 4f 63 83 bd a5 7b c3 3e ca 42 61 3d 4d f3 9f 3e
       -0.06415426 0.3818027 0.054995336 0.3124031
000020 cf 85 94 bd 04 fe c2 3d 36 29 40 3e d0 58 4c 3e
       -0.072520845 0.09521106 0.1876572 0.19955754
000030 e6 5c 04 3d 31 93 78 3e 8d f2 b8 3e 51 34 46 3f
       0.032315157 0.24274899 0.36122552 0.7742358
000040 57 a9 a0 3d cd f6 91 3e 84 d5 08 3d 4c 87 9f 3e
       0.07844799 0.28508607 0.03340675 0.3115791
000050 e7 0f 82 3e 84 5d eb 3d ed 55 a4 bc 42 33 a5 3e
       0.25402758 0.11492446 -0.020060504 0.3226567
000060 51 bd 10 3e c6 1f 2d 3c 3c 91 98 3d b1 2b 0d bc
       0.14134718 0.010566657 0.07449576 -0.008616374
000070 2d 9f 52 be 36 a0 5f be c7 9d 8d 3d 51 a4 d7 3d
       -0.20568533 -0.2183846 0.06914859 0.10529388
000080 c0 77 4a be 0d 15 c2 3d ee 58 f7 bd f9 b0 98 3d
       -0.19772243 0.09476671 -0.12077509 0.0745563
000090 45 47 c2 3c 46 6c 0f be c7 d1 02 3e 7f f3 f8 bd
       0.023715625 -0.14006147 0.12775336 -0.12155818
0000a0 96 79 26 bd 5f cb 2e bd 71 1f 0c 3e dc 52 0a be
       -0.040643297 -0.04267442 0.13683869 -0.13508171
0000b0 03 41 20 be a6 64 9d 3c 95 82 4d bd 2f 0f d4 bd
       -0.156498 0.019213032 -0.05017336 -0.103544585

encoder.tree_lstm.linear_o.weight f4 [8, 12]
000000 e6 94 bb be eb 24 5a be 6c a3 a6 3d 1f bf 54 bf
       -0.36637038 -0.21303146 0.08136639 -0.8310413
000010 90 a2 8a 3e aa 5d 88 3e 4b 4c dc bd ca 8c 16 bd
       0.2707715 0.2663396 -0.10756739 -0.03675536
000020 08 f7 26 3f 41 16 3e bd 97 1c 9d 3e eb 75 07 be
       0.6522069 -0.04640794 0.30685875 -0.13228576
000030 27 c2 d5 3e aa d1 af be 95 21 81 3d 9d c7 d7 3e
       0.4174969 -0.34339648 0.063052334 0.4214448
000040 b4 f0 cd be 61 88 27 3e b6 6c cb 3e 50 70 db 3e
       -0.40222704 0.16360618 0.39731377 0.42859125
000050 91 f3 9c be 2b 82 9e be 76 6f cc bc b8 98 80 3e
       -0.30654576 -0.30958685 -0.024955492 0.25116515
000060 3a 18 c3 bd c5 62 19 be 96 4b f2 be ad 4e 61 3f
       -0.09526105 -0.14979084 -0.47323292 0.88010675
000070 75 bf 9f 3d c9 2f 97 bd 06 10 5f 3d fe f4 0d 3e
       0.078001894 -0.07382161 0.05445864 0.13862988
000080 c5 a6 11 bf ed 4d 95 bd 6e 96 6c 3e 97 e9 98 be
       -0.56895095 -0.07290254 0.2310426 -0.29865715
000090 e9 3c 6c be 89 46 ad 3e 38 5f ac 3e 1f 46 0f bf
       -0.2307011 0.33842877 0.33666396 -0.5596637
0000a0 87 0c e0 bd a9 6e 05 bf f9 bb d3 bd 60 a1 91 be
       -0.109398894 -0.5212198 -0.10338587 -0.28443432
0000b0 aa 6e fb 3d eb fa 35 be cd 01 ea 3d c3 51 25 3e
       0.12276967 -0.17771499 0.11426125 0.16144471
0000c0 16 22 95 bf 19 72 2f be 5e dc 0b 3f 0b a7 c7 bf
       -1.1651027 -0.17133369 0.5463313 -1.5597852
0000d0 68 59 74 3f a7 ba 8a bd aa 1f 0a 3f cd 16 0e bf
       0.95448923 -0.06773882 0.53954566 -0.5550354
0000e0 45 f1 6c 3f 7a 95 be bc e8 1e 8f be 13 9b ce 3e
       0.9255565 -0.023264635 -0.27953267 0.40352687
0000f0 4d 4f 41 bf 50 96 64 bc fc 1e 53 3e 3d 39 0e bf
       -0.7551163 -0.013951853 0.20617288 -0.5555609
000100 07 83 1a 3f 20 16 63 3e 89 ef 36 3e a5 5a 3c be
       0.6035618 0.22176409 0.17864813 -0.18393953
000110 8c 35 44 3f f1 f6 91 3e fc 17 5e 3e 89 66 fc bd
       0.76644206 0.28508714 0.21688837 -0.123242445
000120 34 dc 5f bf 66 e0 a5 be 8a ae 44 3f 58 99 06 c0
       -0.8744538 -0.32397765 0.76828825 -2.1031094
000130 ce c3 39 3f 48 7b d0 3e 70 6a f9 3e 0f ad bc be
       0.725644 0.40719056 0.48714018 -0.36850783
000140 6c 1e 5a 3f e0 8b a5 3e 3a f8 a4 3e f4 7f c5 3e
       0.8520267 0.3233328 0.32220632 0.38574183
000150 c9 95 9b bf 70 bf 52 bd a3 63 71 3f 76 c5 d1 bf
       -1.2155086 -0.0514521 0.9429266 -1.6388385
000160 01 5e 49 3f ff 1a 3c bc a3 3e 0a 3f c6 71 8f be
       0.78659064 -0.011481046 0.54001826 -0.2801649
000170 8f 3c 8c 3f 03 8a 9c 3e b7 bf 81 3e da 19 0b 3f
       1.0955981 0.30574045 0.2534158 0.5433632

encoder.tree_lstm.linear_o.bias f4 [8]
000000 1e 0d bb 3d 57 2b 17 3c f4 5f 44 3e 91 06 1d be
       0.09133361 0.009226642 0.19177228 -0.15334536
000010 2b e4 6c bf 1e 4c eb be 1c f8 64 bf 26 a0 40 bf
       -0.92535657 -0.4595651 -0.89441085 -0.7524437

decoder.mlp.0.weight f4 [4, 4]
000000 f0 18 b0 bf b5 29 8a 3f 4b a5 0f be e0 6b ce 3e
       -1.375761 1.0793978 -0.14027898 0.40316677
000010 8f 4f 14 3f 0c 27 2c be 8b b6 46 bf a5 63 87 3e
       0.57933897 -0.1681177 -0.7762229 0.2644321
000020 f3 0f b9 3f b9 4b c2 3e 58 09 2e bf f7 68 aa bf
       1.4457992 0.37948397 -0.6798301 -1.3313283
000030 a0 ae 35 bf ff c6 58 3f 86 eb 17 3f 76 c7 24 bf
       -0.7096958 0.84678644 0.59343755 -0.64366853

decoder.mlp.0.bias f4 [4]
000000 e4 7d 3e 40 80 e3 d7 3f ea f4 f0 3e 3a ad d9 3f
       2.9764338 1.6866302 0.47061855 1.700599

decoder.mlp.2.weight f4 [4, 4]
000000 c1 63 6b 3f af b7 d0 3f d3 97 ce bd 23 57 0f 3e
       0.9194909 1.6306056 -0.10087552 0.13998084
000010 a3 ef ee 3e 1c 39 19 bf d2 51 55 bf fa 2e 08 40
       0.46667203 -0.59852767 -0.8332797 2.1278672
000020 dc 30 7d 3e 8a b0 e3 3e 43 3a ae 3f c9 23 2e be
       0.2472567 0.44470626 1.361153 -0.17005838
000030 d1 02 49 40 f4 06 10 3f 6c cb 63 be 1f 3f 1e 3a
       3.140797 0.5626061 -0.22245568 0.00060366275

decoder.mlp.2.bias f4 [4]
000000 9c 9f b4 3f 93 d8 f1 3e ea 67 93 3f 62 f4 a0 be
       1.4111209 0.47235546 1.1516087 -0.3143645

decoder.mlp.4.weight f4 [800, 4]
000000 e7 50 07 c0 48 ba 24 c0 62 9c c2 bf 93 36 0d bf
       -2.114313 -2.5738697 -1.5203974 -0.551614
000010 d0 25 ad 3e 5a 50 85 bf 82 3a 5f 3e 1c e6 54 3f
       0.3381791 -1.0415146 0.21799663 0.8316362
000020 d1 f8 56 3f 92 61 a0 bf bc 87 a5 3e 1c b3 83 3f
       0.83973414 -1.2529776 0.3233012 1.0289035
000030 f1 64 9e 3e 2a 19 2a 3f 1e bf 4f 3e 5f 48 83 3f
       0.30936387 0.6644465 0.20287749 1.0256461
000040 08 51 b7 3f 56 7e f9 3f 87 0f e6 3e ad 83 83 3e
       1.4321604 1.949168 0.4493372 0.25686398
000050 aa 47 eb bf 22 55 31 c0 9a 9b fa be eb 4e 8b be
       -1.8381245 -2.770821 -0.4894684 -0.27208647
000060 cc 0c da bf 0b ef d9 bf f4 f7 a0 be f7 4d 88 be
       -1.7035155 -1.7026075 -0.31439173 -0.26621982
000070 2e dc cb 3f 98 b5 e1 3f d1 fd 00 3d 04 63 db 3e
       1.5926569 1.7633543 0.03149206 0.4284898
000080 61 ce 1f bc 8d a2 3c 40 63 3f bf 3e bf 48 50 bf
       -0.009753794 2.9474213 0.37353048 -0.81361
000090 eb 5e 88 3e 16 c9 75 3f 63 25 32 be 49 70 96 3f
       0.26634917 0.9600996 -0.17397074 1.1753017
0000a0 5c 2b db 3f b3 0c c5 bd 78 03 cc 3e 13 f7 a4 3f
       1.7122607 -0.09621563 0.39846396 1.2887901
0000b0 4a ce 38 bf 31 ba 22 bf 0a 68 f6 be f7 13 2a bf
       -0.7218977 -0.63565356 -0.4812625 -0.66436714
0000c0 c5 d8 1f 3f 32 03 33 3e 33 aa c4 3e 08 20 07 bd
       0.6244014 0.17481688 0.38411102 -0.03298953
0000d0 46 3d 81 3c 0f 2a af 3d 10 7c a6 bd db 2b d5 3e
       0.015776288 0.08552944 -0.08129132 0.41635022
0000e0 42 99 1a bf f7 10 5b bd 41 15 bd be 85 68 f5 be
       -0.603901 -0.053482976 -0.36930278 -0.47931305
0000f0 fd 7b 22 3f 7f 76 01 3f 43 37 11 3e a9 e0 48 3e
       0.6347044 0.50571436 0.14181237 0.19616951
000100 b0 e0 2a bf 16 2c 8e bf 6f 89 0c be 0c fc 85 3f
       -0.66749096 -1.1107204 -0.13724302 1.0467544
000110 65 43 56 bf 53 8d bc 3e 34 fc 02 bf 68 31 a6 bc
       -0.83696586 0.36826572 -0.5116608 -0.02028723
000120 22 c9 22 3f aa 2a 1f c0 3f 21 93 3d d8 28 5b 3f
       0.63588154 -2.486979 0.071840756 0.856092
000130 7b c1 64 bf 8a 75 b5 3f 99 e2 df 3e f9 01 22 bf
       -0.8935773 1.4176495 0.43727568 -0.6328426
000140 3c 20 0a 40 3a 94 80 3f 7c 8b e6 bd 62 61 72 be
       2.1582174 1.0045235 -0.11257073 -0.23669961
000150 64 fe 3a c0 9b ec b7 bf 34 48 1b bf aa e9 2e 3e
       -2.9217768 -1.4369081 -0.6065705 0.17081323
000160 ee 53 d1 bf 90 e4 a9 bf f9 40 a6 be 26 98 c8 be
       -1.6353738 -1.3272877 -0.32471445 -0.3917858
000170 08 53 08 40 8c 74 c6 3f 97 ac e0 3e 2e 66 e3 bd
       2.1300678 1.5504317 0.43881676 -0.111034736
000180 15 81 a4 3e f1 f0 f5 bd 0e 73 be be 7b 85 3d bf
       0.32129732 -0.120088466 -0.37197155 -0.740318
000190 81 8b 18 be 83 eb 7e 3f 64 5b 16 bf 02 aa b0 be
       -0.14896967 0.9957811 -0.587332 -0.34504706
0001a0 2b bd 15 bf 3a cd b3 bf b9 de 8b 3e 06 94 83 3e
       -0.5849177 -1.4047005 0.2731836 0.2569887
0001b0 73 1a 81 3e 5a 38 fb 3e 38 78 20 3f 79 f3 a5 be
       0.25215492 0.4906643 0.6268344 -0.32412317
0001c0 96 be a9 3f f5 d8 0c 40 02 64 3c 3d 9b f1 da 3e
       1.3261287 2.200742 0.045993812 0.42762455
0001d0 ce 80 04 c0 c4 1d 40 c0 c8 8a e9 be 02 01 db bb
       -2.0703616 -3.0018167 -0.45613694 -0.0066834697
0001e0 c3 3c a7 bf ab ff 2a c0 d0 ff 8d 3c 6b 4f 30 bf
       -1.3065418 -2.6718547 0.017333895 -0.6887118
0001f0 96 6a d7 3f 92 61 2a 40 cc 3f 21 3e 83 ed 4e 3e
       1.6829402 2.6622052 0.15746993 0.20207791
000200 ed 27 de 3d 68 d9 50 be 35 b5 8f bf da 71 42 3f
       0.10847459 -0.20395434 -1.1227175 0.75954974
000210 46 8f 0c bf 4a d3 4b 40 65 74 9e bf b1 84 3f bf
       -0.5490612 3.184771 -1.2379271 -0.74811846
000220 d7 e9 16 be 70 ab d2 bf 36 f1 17 bf 5a 66 65 3f
       -0.1473764 -1.6458569 -0.59352434 0.896093
000230 b8 0a f4 be cf db 93 3f 4f c1 f3 bc f6 2f b6 be
       -0.47664428 1.1551455 -0.029755263 -0.35583466
000240 77 5b d3 3f 54 11 e2 3f f0 6d b7 3e ff 3c dd 3e
       1.6512288 1.7661538 0.35826063 0.432106
000250 5a 3c 1b c0 58 bb f4 bf d9 f0 af be c1 6b da 3d
       -2.4255586 -1.9119673 -0.3436344 0.10665084
000260 3b d9 df bf 76 00 a1 bf 70 f0 62 bd cf 25 0d bd
       -1.7488168 -1.2578266 -0.05540508 -0.034459885
000270 fa 57 cd 3f d7 34 ea 3f 67 7b 9f 3e 61 cf 74 3e
       1.6042473 1.8297375 0.31148836 0.23907234
000280 57 25 f7 3d 28 df 38 3f 55 73 41 bf 6a 84 13 3f
       0.12067669 0.7221551 -0.7556661 0.5762392
000290 c8 c9 2e bf 04 12 b8 3f 9a 9f a6 bf 9a c3 9f bd
       -0.68276644 1.4380498 -1.3017457 -0.0780098
0002a0 03 c7 47 be 31 c7 f9 bd 39 55 c6 be 83 fa 8b 3e
       -0.1950951 -0.12196196 -0.38736895 0.27339563
0002b0 9e 3a 8f be cd 97 dc 3f ce c9 34 bd e9 ad 0a bf
       -0.2797441 1.7233826 -0.04413777 -0.54171616
0002c0 db 73 af 3f ca a5 01 40 a4 eb f8 3d a3 7f 25 be
       1.3707231 2.025744 0.1215432 -0.16161971
0002d0 d8 50 10 c0 73 a5 38 c0 18 f0 30 bf 06 c6 85 bd
       -2.2549343 -2.8850982 -0.69116354 -0.065319106
0002e0 1a dc c5 bf 76 1e d7 bf 1c 85 a3 3d a7 f0 a8 be
       -1.5457795 -1.6806171 0.07984373 -0.32996103
0002f0 26 ed e6 3f e8 a0 0d 40 e4 aa 3b bd 93 cf fd 3e
       1.8041122 2.212946 -0.04581727 0.4957243
000300 19 8c b9 3d 9f ff 14 3f e8 66 3c bf 49 1f cb 3f
       0.09059925 0.58202547 -0.7359452 1.5868922
000310 0c ec 0b bf c9 e3 18 3e 01 60 33 bf d4 1f 45 bf
       -0.54657054 0.14930643 -0.70068365 -0.7700169
000320 d4 77 85 bf 9f a7 af be 0e ba c6 be 1e 43 8c bf
       -1.0427194 -0.34307572 -0.38813823 -1.0957983
000330 4a ea 6f 3e 52 ff c2 3f 01 8b 10 3f 99 bf 83 3d
       0.23429218 1.5234168 0.56462103 0.06433029
000340 b1 52 d3 3f 7e ff 0b 40 e3 eb 0c 3e 13 16 62 bc
       1.650961 2.187469 0.13761859 -0.013799208
000350 e2 cd 12 c0 df b9 22 c0 d9 f3 bc be 7b 4e c0 be
       -2.293816 -2.5425947 -0.3690479 -0.37559876
000360 d3 39 a7 bf 14 24 cf bf 18 05 68 be 1d 0b 8a be
       -1.3064522 -1.6182885 -0.22658193 -0.26961604
000370 56 77 05 40 3c d1 00 40 71 5f 41 3e 2c d1 0f be
       2.0854087 2.0127707 0.18884064 -0.14044636
000380 c1 89 f0 3d 93 8b c3 be 4f 46 bf be 4d 46 ea 3e
       0.117450245 -0.38192424 -0.3735833 0.4575676
000390 a5 da 99 be ed f1 1b 3f 6a 04 79 bf 10 36 4c be
       -0.30049625 0.60916024 -0.9727236 -0.19942498
0003a0 5a 99 7c bf 65 4d 82 bf d8 d5 a0 bd 1c 61 92 bf
       -0.98671496 -1.0179869 -0.078532875 -1.1435885
0003b0 bb 83 8a 3e fe 4c b0 3f fc 5a 5f 3e ff 02 bc bc
       0.27053627 1.3773496 0.21812052 -0.022950647
0003c0 b7 f1 12 40 e4 4a 60 3f 0e 56 26 bd 6f 01 87 be
       2.296003 0.87614274 -0.040609412 -0.2636828
0003d0 d5 73 41 c0 42 50 ab bf f6 4c e1 be 28 2f 87 bd
       -3.0226948 -1.3383868 -0.4400403 -0.06600791
0003e0 5e 6c 24 c0 2c 0c bd bf 63 50 86 bd fa 1c 22 be
       -2.5691142 -1.476934 -0.06558301 -0.15831366
0003f0 28 64 10 40 5b 0b 79 3f 80 99 fa 3e 5d 37 62 be
       2.256113 0.9728295 0.48945236 -0.22091432

decoder.mlp.4.bias f4 [800]
000000 eb 71 5e 3d dd fc bc bf c9 f3 15 40 b6 4b 1d 40
       0.05430786 -1.4764668 2.3430045 2.457746
000010 41 ca d5 3d fc 0d 96 be 59 45 59 3d 99 5a e1 3e
       0.104389675 -0.29307544 0.05304465 0.44014433
000020 64 af af 3f 94 a9 3e 3f af ce ae bd 9b a0 4f bf
       1.37254 0.74477506 -0.085355155 -0.8110444
000030 c0 9e 71 3f f0 fc 1b bd 2c f9 13 bf 99 2e 5d 3f
       0.9438286 -0.038083017 -0.5780208 0.8639923
000040 d0 27 3f 40 f2 2d 63 bf 81 8a d6 bf ca e2 e0 3f
       2.986805 -0.8874198 -1.6761018 1.756921
000050 20 e5 a7 3d 9b 2a 68 be c3 19 37 3d 42 b4 c5 3d
       0.08197999 -0.22672503 0.044702303 0.09653522
000060 42 4d ee 3e 89 0f 87 bf 8b 03 0d c0 c6 ee 53 bf
       0.46543318 -1.0551616 -2.2033412 -0.82786214
000070 4f d1 29 3f 3c 54 79 be bb e5 1d be 1d 06 f7 3d
       0.66335005 -0.24348539 -0.15419666 0.12061713
000080 80 3f 15 be cf 42 a0 bf 32 d6 3d c0 ff 97 af 3f
       -0.14575005 -1.2520388 -2.9661984 1.371826
000090 56 70 31 3e db ce 22 bf 99 07 10 3e a5 51 25 3f
       0.17328009 -0.63596886 0.14065398 0.64577705
0000a0 c3 dd 59 bf 2c 98 30 be 63 f6 11 c0 e2 71 a1 be
       -0.85104007 -0.17245549 -2.2806633 -0.31532198
0000b0 65 e2 b3 3e 4f 1d 1a bf 42 9e 12 bf dc 7d 15 3f
       0.35133663 -0.6020097 -0.5727273 0.5839517
0000c0 82 a9 59 bf c0 1c c0 bd b0 56 21 c0 4b 83 93 be
       -0.85024273 -0.093804836 -2.520916 -0.28811106
0000d0 e5 2f d8 3e c2 c1 e0 be 42 54 75 3c 62 65 9a 3e
       0.4222404 -0.43897825 0.014973702 0.30155474
0000e0 73 a4 94 bd 79 91 87 bf 3c 06 c7 bf 5d ae 4c bf
       -0.07257929 -1.059127 -1.5548778 -0.7995356
0000f0 ce c2 0a 3f 78 e4 9a 3b 2c 76 d3 bc ef 32 d4 3d
       0.542035 0.0047269426 -0.025813185 0.10361277
000100 de d4 64 bf 69 03 01 3f 05 ab 7f 3f 35 a2 16 c0
       -0.8938731 0.5039583 0.9987033 -2.3536503
000110 63 c4 bb bd b6 cb 60 3e db a0 1d 3e 13 92 c9 bd
       -0.09168317 0.2195271 0.15393393 -0.098423146
000120 bb 1d 82 3f 95 e1 3d c0 66 ea 8f 3f 45 32 03 40
       1.0165323 -2.9668934 1.1243408 2.0499432
000130 44 36 82 3b 12 d3 4d 3e 84 a9 d6 be c2 e0 da 3e
       0.003973754 0.20100048 -0.41926205 0.42749602
000140 73 7f ca bf e7 20 23 40 7a f7 aa be 85 7e ea bf
       -1.5820144 2.5488832 -0.33391935 -1.8319861
000150 26 69 33 3e 3f 6a ea be 13 19 07 bf f7 2d b9 3d
       0.1752058 -0.45784184 -0.52772635 0.0904197
000160 de 62 08 40 6c 08 cf 3f 24 6d de bf 1a d9 73 3f
       2.1310344 1.6174445 -1.7377057 0.95253146
000170 9f 89 97 3e 76 36 0d bf b4 17 1f be a7 37 c7 bc
       0.29597184 -0.55161226 -0.15536386 -0.02431853
000180 3c bc 2e 40 05 46 1e 3f 10 9d 1e bf 9f ae 98 3e
       2.730239 0.6182559 -0.6195841 0.29820725
000190 65 ae 0f bd 70 d7 04 bf c3 fa 0e be ac 6f c1 3e
       -0.035078425 -0.5189123 -0.13962846 0.3778051
0001a0 59 f4 5b 40 b4 79 d0 3f 1f 2f 8c bf ca dd 11 3d
       3.4367888 1.6287141 -1.095188 0.035611905
0001b0 f1 87 ae 3e 6e 48 3c 3e 1d 79 5d 3d 1a 01 97 3e
       0.3408809 0.18387005 0.05407058 0.29493028
0001c0 6e 4a 1c 40 34 06 aa 3f f8 94 9a bf 29 e6 40 bf
       2.4420428 1.3283143 -1.2076712 -0.75351197
0001d0 bc f9 ba 3e 2e 3e 8c be d8 11 01 bf 04 a0 6d be
       0.36518657 -0.2739119 -0.5041785 -0.23205572
0001e0 95 9f e3 3f 9b eb cc 3f 73 89 c6 bf 8b 8d 85 3c
       1.7783076 1.6009401 -1.5510696 0.016302845
0001f0 d5 80 19 3d 1d 24 ec be 64 8a 2f 3c ef e1 ae 3e
       0.03747638 -0.46121302 0.010714147 0.3415675
000200 63 19 82 bf 8e 33 b0 3f 67 f9 26 3f 47 65 a4 bc
       -1.0163997 1.3765733 0.6522431 -0.020067824
000210 22 1f cc 3e 53 0b 78 be 8b 9f d0 3d 2e 9a 2c 3b
       0.39867502 -0.2422307 0.101866804 0.0026337015
000220 9d a4 06 3f 4e 75 0a bf 18 e7 b0 3f 94 9d 5b bf
       0.5259493 -0.5408524 1.3820524 -0.8578732
000230 7a 4d 7e 3d 50 7d b5 be 82 cc 83 be 6b 39 a7 3d
       0.062085606 -0.35447168 -0.25741965 0.081652485
000240 ea 05 03 40 9a 4d 90 bf f7 55 29 bf 5f 24 2f bf
       2.047236 -1.1273682 -0.66146797 -0.6841487
000250 9f 40 95 3e 3f 56 85 be 20 cb cf bc e2 6a ac 3e
       0.29150864 -0.26042363 -0.025365412 0.33675295
000260 98 7c 57 3e ec 7c 56 bf 5c 37 67 bc cc 47 e1 bf
       0.21043622 -0.83784366 -0.01411232 -1.7600036
000270 e1 4d 89 3e e0 32 99 be d9 37 8d 3d 7a b7 2c be
       0.2681723 -0.29921627 0.06895418 -0.16866866
000280 1f 20 37 3f c0 8a 4f 3e e4 d3 9c bf e6 1c c8 bf
       0.7153339 0.20267773 -1.2252164 -1.5633819
000290 36 5e 67 3e 54 48 b9 be 4b ed e5 be 6f 73 56 3d
       0.22594532 -0.36187994 -0.44907603 0.05235618
0002a0 b0 b3 f7 3e b8 f6 eb 3d 46 ae 17 c0 5e ff a3 bf
       0.48379278 0.11521667 -2.3700118 -1.2812307
0002b0 69 ba f0 3e df b0 31 be 03 94 04 bf 35 55 9e 3d
       0.4701722 -0.17352627 -0.5178835 0.07731096
0002c0 54 90 97 3e 0f 22 00 bf 7c 26 45 bf 83 c9 9c bf
       0.296023 -0.5005197 -0.7701185 -1.2248996
0002d0 82 22 ae 3d 2f 32 1a be 96 92 12 bf 92 5e 0d 3f
       0.085026756 -0.15058206 -0.5725492 0.5522243
0002e0 03 57 d6 3f f1 14 79 bf 48 d1 90 bf 78 b0 83 bf
       1.6745304 -0.9729758 -1.1313868 -1.0288229
0002f0 5b eb e4 3e 8a 05 a4 bd ec e4 fb be 0f 64 92 be
       0.44710812 -0.08008869 -0.4919809 -0.28591964
000300 93 c1 49 bf 18 01 1b 3f 0d 11 2d bf 71 d8 d2 bf
       -0.78810996 0.60548544 -0.6760414 -1.6472303
000310 f9 e4 47 bd 71 83 78 be 6e 67 84 be 8a 64 dd 3e
       -0.04880235 -0.24268891 -0.2586016 0.43240768
000320 5c 19 f7 be 58 c8 5d 3e 6b 73 a4 bf 45 3c c2 bf
       -0.48261535 0.21658456 -1.2847723 -1.5174643
000330 3f 0c eb 3c cf 14 50 be 59 6e 6f be 97 36 9a 3e
       0.028692363 -0.20320438 -0.23381938 0.30119774
000340 1b 4e 10 3f a3 99 90 be c1 06 cf bf 5d 32 76 bf
       0.5636918 -0.28242216 -1.6173936 -0.961706
000350 e8 e3 37 3e 2f d7 9c be ec 91 f7 be 69 b7 aa 3e
       0.17958033 -0.30632922 -0.48353517 0.33343056
000360 b0 f2 81 3f 2a 2a a1 3d bc 7a 9b bf 46 7d ac bf
       1.0152187 0.0786937 -1.214683 -1.347573
000370 8c 15 42 3f 58 28 ce bc 2c 0a 54 bc e7 1a 40 3f
       0.7581413 -0.025165722 -0.012941878 0.7504105
000380 e2 fa 85 3e 3c 3f a2 3c 36 34 56 bf 87 14 af bf
       0.2616797 0.019805543 -0.8367342 -1.367814
000390 89 e5 c8 3e 57 df 2e bf 7a 98 1a bf 71 c4 4f 3f
       0.3923762 -0.6830954 -0.6038891 0.8115912
0003a0 d0 c9 1b 3d e0 95 e9 3e 2d 20 29 bf 0b 22 ce bf
       0.03803426 0.45622158 -0.6606472 -1.6104139
0003b0 4d 3f 31 3f ae b2 98 be 61 9f e1 be 87 ba 47 3e
       0.69237214 -0.29823822 -0.4406691 0.19504748
0003c0 2e 42 17 3e 19 40 09 3f 7f d1 63 bf ad 87 7c bf
       0.1477134 0.5361343 -0.8899154 -0.98644525
0003d0 7e f6 14 3f 93 34 03 bf b9 54 95 be 82 b8 02 3f
       0.5818862 -0.51252097 -0.291662 0.51062787
0003e0 f4 e5 28 3f 5d 7b e2 3e 6e 35 32 bf 03 85 b5 bf
       0.6597588 0.44234744 -0.6961278 -1.4181217
0003f0 ac 17 0c 3f 6a a2 fe be d3 a5 20 bd 8e 8e 8c bd
       0.5472362 -0.49733287 -0.039220642 -0.06863128
